<?xml version="1.0" ?>
<net name="torch-jit-export" version="11">
	<layers>
		<layer id="0" name="input.1" type="Parameter" version="opset1">
			<data shape="1,3,512,512" element_type="f32"/>
			<rt_info>
				<attribute name="fused_names" version="0" value="input.1"/>
				<attribute name="old_api_map_element_type" version="0" value="f16"/>
			</rt_info>
			<output>
				<port id="0" precision="FP32" names="input.1">
					<dim>1</dim>
					<dim>3</dim>
					<dim>512</dim>
					<dim>512</dim>
					<rt_info>
						<attribute name="layout" version="0" layout="[N,C,H,W]"/>
					</rt_info>
				</port>
			</output>
		</layer>
		<layer id="1" name="Range_2495" type="Const" version="opset1">
			<data element_type="i32" shape="3" offset="0" size="12"/>
			<output>
				<port id="0" precision="I32">
					<dim>3</dim>
				</port>
			</output>
		</layer>
		<layer id="2" name="Constant_2496" type="Const" version="opset1">
			<data element_type="i32" shape="1" offset="12" size="4"/>
			<rt_info>
				<attribute name="fused_names" version="0" value="Constant_2496"/>
			</rt_info>
			<output>
				<port id="0" precision="I32">
					<dim>1</dim>
				</port>
			</output>
		</layer>
		<layer id="3" name="Gather_2497" type="Gather" version="opset8">
			<data batch_dims="0"/>
			<rt_info>
				<attribute name="fused_names" version="0" value="Gather_2497, Range_2495"/>
				<attribute name="preprocessing" version="0"/>
			</rt_info>
			<input>
				<port id="0" precision="FP32">
					<dim>1</dim>
					<dim>3</dim>
					<dim>512</dim>
					<dim>512</dim>
				</port>
				<port id="1" precision="I32">
					<dim>3</dim>
				</port>
				<port id="2" precision="I32">
					<dim>1</dim>
				</port>
			</input>
			<output>
				<port id="3" precision="FP32">
					<dim>1</dim>
					<dim>3</dim>
					<dim>512</dim>
					<dim>512</dim>
				</port>
			</output>
		</layer>
		<layer id="4" name="Constant_5198_compressed" type="Const" version="opset1">
			<data element_type="f16" shape="1" offset="16" size="2"/>
			<output>
				<port id="0" precision="FP16">
					<dim>1</dim>
				</port>
			</output>
		</layer>
		<layer id="5" name="Constant_5198" type="Convert" version="opset1">
			<data destination_type="f32"/>
			<rt_info>
				<attribute name="decompression" version="0"/>
			</rt_info>
			<input>
				<port id="0" precision="FP16">
					<dim>1</dim>
				</port>
			</input>
			<output>
				<port id="1" precision="FP32">
					<dim>1</dim>
				</port>
			</output>
		</layer>
		<layer id="6" name="Divide_2499" type="Multiply" version="opset1">
			<data auto_broadcast="numpy"/>
			<rt_info>
				<attribute name="fused_names" version="0" value="Constant_2498, Divide_2499"/>
				<attribute name="preprocessing" version="0"/>
			</rt_info>
			<input>
				<port id="0" precision="FP32">
					<dim>1</dim>
					<dim>3</dim>
					<dim>512</dim>
					<dim>512</dim>
				</port>
				<port id="1" precision="FP32">
					<dim>1</dim>
				</port>
			</input>
			<output>
				<port id="2" precision="FP32">
					<dim>1</dim>
					<dim>3</dim>
					<dim>512</dim>
					<dim>512</dim>
				</port>
			</output>
		</layer>
		<layer id="7" name="Reshape_5217_compressed" type="Const" version="opset1">
			<data element_type="f16" shape="1, 3, 1, 1" offset="18" size="6"/>
			<output>
				<port id="0" precision="FP16">
					<dim>1</dim>
					<dim>3</dim>
					<dim>1</dim>
					<dim>1</dim>
				</port>
			</output>
		</layer>
		<layer id="8" name="Reshape_5217" type="Convert" version="opset1">
			<data destination_type="f32"/>
			<rt_info>
				<attribute name="decompression" version="0"/>
			</rt_info>
			<input>
				<port id="0" precision="FP16">
					<dim>1</dim>
					<dim>3</dim>
					<dim>1</dim>
					<dim>1</dim>
				</port>
			</input>
			<output>
				<port id="1" precision="FP32">
					<dim>1</dim>
					<dim>3</dim>
					<dim>1</dim>
					<dim>1</dim>
				</port>
			</output>
		</layer>
		<layer id="9" name="Subtract_5220" type="Subtract" version="opset1">
			<data auto_broadcast="numpy"/>
			<rt_info>
				<attribute name="fused_names" version="0" value="498"/>
			</rt_info>
			<input>
				<port id="0" precision="FP32">
					<dim>1</dim>
					<dim>3</dim>
					<dim>512</dim>
					<dim>512</dim>
				</port>
				<port id="1" precision="FP32">
					<dim>1</dim>
					<dim>3</dim>
					<dim>1</dim>
					<dim>1</dim>
				</port>
			</input>
			<output>
				<port id="2" precision="FP32">
					<dim>1</dim>
					<dim>3</dim>
					<dim>512</dim>
					<dim>512</dim>
				</port>
			</output>
		</layer>
		<layer id="10" name="Reshape_5211_compressed" type="Const" version="opset1">
			<data element_type="f16" shape="1, 3, 1, 1" offset="24" size="6"/>
			<output>
				<port id="0" precision="FP16">
					<dim>1</dim>
					<dim>3</dim>
					<dim>1</dim>
					<dim>1</dim>
				</port>
			</output>
		</layer>
		<layer id="11" name="Reshape_5211" type="Convert" version="opset1">
			<data destination_type="f32"/>
			<rt_info>
				<attribute name="decompression" version="0"/>
			</rt_info>
			<input>
				<port id="0" precision="FP16">
					<dim>1</dim>
					<dim>3</dim>
					<dim>1</dim>
					<dim>1</dim>
				</port>
			</input>
			<output>
				<port id="1" precision="FP32">
					<dim>1</dim>
					<dim>3</dim>
					<dim>1</dim>
					<dim>1</dim>
				</port>
			</output>
		</layer>
		<layer id="12" name="Multiply_5221" type="Multiply" version="opset1">
			<data auto_broadcast="numpy"/>
			<rt_info>
				<attribute name="fused_names" version="0" value="498"/>
			</rt_info>
			<input>
				<port id="0" precision="FP32">
					<dim>1</dim>
					<dim>3</dim>
					<dim>512</dim>
					<dim>512</dim>
				</port>
				<port id="1" precision="FP32">
					<dim>1</dim>
					<dim>3</dim>
					<dim>1</dim>
					<dim>1</dim>
				</port>
			</input>
			<output>
				<port id="2" precision="FP32">
					<dim>1</dim>
					<dim>3</dim>
					<dim>512</dim>
					<dim>512</dim>
				</port>
			</output>
		</layer>
		<layer id="13" name="Reshape_5214_compressed" type="Const" version="opset1">
			<data element_type="f16" shape="1, 3, 1, 1" offset="30" size="6"/>
			<output>
				<port id="0" precision="FP16">
					<dim>1</dim>
					<dim>3</dim>
					<dim>1</dim>
					<dim>1</dim>
				</port>
			</output>
		</layer>
		<layer id="14" name="Reshape_5214" type="Convert" version="opset1">
			<data destination_type="f32"/>
			<rt_info>
				<attribute name="decompression" version="0"/>
			</rt_info>
			<input>
				<port id="0" precision="FP16">
					<dim>1</dim>
					<dim>3</dim>
					<dim>1</dim>
					<dim>1</dim>
				</port>
			</input>
			<output>
				<port id="1" precision="FP32">
					<dim>1</dim>
					<dim>3</dim>
					<dim>1</dim>
					<dim>1</dim>
				</port>
			</output>
		</layer>
		<layer id="15" name="498" type="Add" version="opset1">
			<data auto_broadcast="numpy"/>
			<rt_info>
				<attribute name="fused_names" version="0" value="498"/>
			</rt_info>
			<input>
				<port id="0" precision="FP32">
					<dim>1</dim>
					<dim>3</dim>
					<dim>512</dim>
					<dim>512</dim>
				</port>
				<port id="1" precision="FP32">
					<dim>1</dim>
					<dim>3</dim>
					<dim>1</dim>
					<dim>1</dim>
				</port>
			</input>
			<output>
				<port id="2" precision="FP32" names="498">
					<dim>1</dim>
					<dim>3</dim>
					<dim>512</dim>
					<dim>512</dim>
				</port>
			</output>
		</layer>
		<layer id="16" name="backbone.features.0.0.weight_compressed" type="Const" version="opset1">
			<data element_type="f16" shape="32, 3, 3, 3" offset="36" size="1728"/>
			<output>
				<port id="0" precision="FP16">
					<dim>32</dim>
					<dim>3</dim>
					<dim>3</dim>
					<dim>3</dim>
				</port>
			</output>
		</layer>
		<layer id="17" name="backbone.features.0.0.weight" type="Convert" version="opset1">
			<data destination_type="f32"/>
			<rt_info>
				<attribute name="decompression" version="0"/>
				<attribute name="fused_names" version="0" value="backbone.features.0.0.weight"/>
			</rt_info>
			<input>
				<port id="0" precision="FP16">
					<dim>32</dim>
					<dim>3</dim>
					<dim>3</dim>
					<dim>3</dim>
				</port>
			</input>
			<output>
				<port id="1" precision="FP32" names="backbone.features.0.0.weight">
					<dim>32</dim>
					<dim>3</dim>
					<dim>3</dim>
					<dim>3</dim>
				</port>
			</output>
		</layer>
		<layer id="18" name="499" type="Convolution" version="opset1">
			<data strides="2, 2" dilations="1, 1" pads_begin="1, 1" pads_end="1, 1" auto_pad="explicit"/>
			<rt_info>
				<attribute name="fused_names" version="0" value="499"/>
			</rt_info>
			<input>
				<port id="0" precision="FP32">
					<dim>1</dim>
					<dim>3</dim>
					<dim>512</dim>
					<dim>512</dim>
				</port>
				<port id="1" precision="FP32">
					<dim>32</dim>
					<dim>3</dim>
					<dim>3</dim>
					<dim>3</dim>
				</port>
			</input>
			<output>
				<port id="2" precision="FP32" names="499">
					<dim>1</dim>
					<dim>32</dim>
					<dim>256</dim>
					<dim>256</dim>
				</port>
			</output>
		</layer>
		<layer id="19" name="Reshape_5240_compressed" type="Const" version="opset1">
			<data element_type="f16" shape="1, 32, 1, 1" offset="1764" size="64"/>
			<output>
				<port id="0" precision="FP16">
					<dim>1</dim>
					<dim>32</dim>
					<dim>1</dim>
					<dim>1</dim>
				</port>
			</output>
		</layer>
		<layer id="20" name="Reshape_5240" type="Convert" version="opset1">
			<data destination_type="f32"/>
			<rt_info>
				<attribute name="decompression" version="0"/>
			</rt_info>
			<input>
				<port id="0" precision="FP16">
					<dim>1</dim>
					<dim>32</dim>
					<dim>1</dim>
					<dim>1</dim>
				</port>
			</input>
			<output>
				<port id="1" precision="FP32">
					<dim>1</dim>
					<dim>32</dim>
					<dim>1</dim>
					<dim>1</dim>
				</port>
			</output>
		</layer>
		<layer id="21" name="Subtract_5243" type="Subtract" version="opset1">
			<data auto_broadcast="numpy"/>
			<rt_info>
				<attribute name="fused_names" version="0" value="500"/>
			</rt_info>
			<input>
				<port id="0" precision="FP32">
					<dim>1</dim>
					<dim>32</dim>
					<dim>256</dim>
					<dim>256</dim>
				</port>
				<port id="1" precision="FP32">
					<dim>1</dim>
					<dim>32</dim>
					<dim>1</dim>
					<dim>1</dim>
				</port>
			</input>
			<output>
				<port id="2" precision="FP32">
					<dim>1</dim>
					<dim>32</dim>
					<dim>256</dim>
					<dim>256</dim>
				</port>
			</output>
		</layer>
		<layer id="22" name="Reshape_5234_compressed" type="Const" version="opset1">
			<data element_type="f16" shape="1, 32, 1, 1" offset="1828" size="64"/>
			<output>
				<port id="0" precision="FP16">
					<dim>1</dim>
					<dim>32</dim>
					<dim>1</dim>
					<dim>1</dim>
				</port>
			</output>
		</layer>
		<layer id="23" name="Reshape_5234" type="Convert" version="opset1">
			<data destination_type="f32"/>
			<rt_info>
				<attribute name="decompression" version="0"/>
			</rt_info>
			<input>
				<port id="0" precision="FP16">
					<dim>1</dim>
					<dim>32</dim>
					<dim>1</dim>
					<dim>1</dim>
				</port>
			</input>
			<output>
				<port id="1" precision="FP32">
					<dim>1</dim>
					<dim>32</dim>
					<dim>1</dim>
					<dim>1</dim>
				</port>
			</output>
		</layer>
		<layer id="24" name="Multiply_5244" type="Multiply" version="opset1">
			<data auto_broadcast="numpy"/>
			<rt_info>
				<attribute name="fused_names" version="0" value="500"/>
			</rt_info>
			<input>
				<port id="0" precision="FP32">
					<dim>1</dim>
					<dim>32</dim>
					<dim>256</dim>
					<dim>256</dim>
				</port>
				<port id="1" precision="FP32">
					<dim>1</dim>
					<dim>32</dim>
					<dim>1</dim>
					<dim>1</dim>
				</port>
			</input>
			<output>
				<port id="2" precision="FP32">
					<dim>1</dim>
					<dim>32</dim>
					<dim>256</dim>
					<dim>256</dim>
				</port>
			</output>
		</layer>
		<layer id="25" name="Reshape_5237_compressed" type="Const" version="opset1">
			<data element_type="f16" shape="1, 32, 1, 1" offset="1892" size="64"/>
			<output>
				<port id="0" precision="FP16">
					<dim>1</dim>
					<dim>32</dim>
					<dim>1</dim>
					<dim>1</dim>
				</port>
			</output>
		</layer>
		<layer id="26" name="Reshape_5237" type="Convert" version="opset1">
			<data destination_type="f32"/>
			<rt_info>
				<attribute name="decompression" version="0"/>
			</rt_info>
			<input>
				<port id="0" precision="FP16">
					<dim>1</dim>
					<dim>32</dim>
					<dim>1</dim>
					<dim>1</dim>
				</port>
			</input>
			<output>
				<port id="1" precision="FP32">
					<dim>1</dim>
					<dim>32</dim>
					<dim>1</dim>
					<dim>1</dim>
				</port>
			</output>
		</layer>
		<layer id="27" name="500" type="Add" version="opset1">
			<data auto_broadcast="numpy"/>
			<rt_info>
				<attribute name="fused_names" version="0" value="500"/>
			</rt_info>
			<input>
				<port id="0" precision="FP32">
					<dim>1</dim>
					<dim>32</dim>
					<dim>256</dim>
					<dim>256</dim>
				</port>
				<port id="1" precision="FP32">
					<dim>1</dim>
					<dim>32</dim>
					<dim>1</dim>
					<dim>1</dim>
				</port>
			</input>
			<output>
				<port id="2" precision="FP32" names="500">
					<dim>1</dim>
					<dim>32</dim>
					<dim>256</dim>
					<dim>256</dim>
				</port>
			</output>
		</layer>
		<layer id="28" name="501" type="ReLU" version="opset1">
			<rt_info>
				<attribute name="fused_names" version="0" value="501"/>
			</rt_info>
			<input>
				<port id="0" precision="FP32">
					<dim>1</dim>
					<dim>32</dim>
					<dim>256</dim>
					<dim>256</dim>
				</port>
			</input>
			<output>
				<port id="1" precision="FP32" names="501">
					<dim>1</dim>
					<dim>32</dim>
					<dim>256</dim>
					<dim>256</dim>
				</port>
			</output>
		</layer>
		<layer id="29" name="Reshape_511_compressed" type="Const" version="opset1">
			<data element_type="f16" shape="32, 1, 1, 3, 3" offset="1956" size="576"/>
			<output>
				<port id="0" precision="FP16">
					<dim>32</dim>
					<dim>1</dim>
					<dim>1</dim>
					<dim>3</dim>
					<dim>3</dim>
				</port>
			</output>
		</layer>
		<layer id="30" name="Reshape_511" type="Convert" version="opset1">
			<data destination_type="f32"/>
			<rt_info>
				<attribute name="decompression" version="0"/>
			</rt_info>
			<input>
				<port id="0" precision="FP16">
					<dim>32</dim>
					<dim>1</dim>
					<dim>1</dim>
					<dim>3</dim>
					<dim>3</dim>
				</port>
			</input>
			<output>
				<port id="1" precision="FP32">
					<dim>32</dim>
					<dim>1</dim>
					<dim>1</dim>
					<dim>3</dim>
					<dim>3</dim>
				</port>
			</output>
		</layer>
		<layer id="31" name="502" type="GroupConvolution" version="opset1">
			<data strides="1, 1" pads_begin="1, 1" pads_end="1, 1" dilations="1, 1" auto_pad="explicit"/>
			<rt_info>
				<attribute name="fused_names" version="0" value="502, Reshape_511"/>
			</rt_info>
			<input>
				<port id="0" precision="FP32">
					<dim>1</dim>
					<dim>32</dim>
					<dim>256</dim>
					<dim>256</dim>
				</port>
				<port id="1" precision="FP32">
					<dim>32</dim>
					<dim>1</dim>
					<dim>1</dim>
					<dim>3</dim>
					<dim>3</dim>
				</port>
			</input>
			<output>
				<port id="2" precision="FP32" names="502">
					<dim>1</dim>
					<dim>32</dim>
					<dim>256</dim>
					<dim>256</dim>
				</port>
			</output>
		</layer>
		<layer id="32" name="Reshape_5263_compressed" type="Const" version="opset1">
			<data element_type="f16" shape="1, 32, 1, 1" offset="2532" size="64"/>
			<output>
				<port id="0" precision="FP16">
					<dim>1</dim>
					<dim>32</dim>
					<dim>1</dim>
					<dim>1</dim>
				</port>
			</output>
		</layer>
		<layer id="33" name="Reshape_5263" type="Convert" version="opset1">
			<data destination_type="f32"/>
			<rt_info>
				<attribute name="decompression" version="0"/>
			</rt_info>
			<input>
				<port id="0" precision="FP16">
					<dim>1</dim>
					<dim>32</dim>
					<dim>1</dim>
					<dim>1</dim>
				</port>
			</input>
			<output>
				<port id="1" precision="FP32">
					<dim>1</dim>
					<dim>32</dim>
					<dim>1</dim>
					<dim>1</dim>
				</port>
			</output>
		</layer>
		<layer id="34" name="Subtract_5266" type="Subtract" version="opset1">
			<data auto_broadcast="numpy"/>
			<rt_info>
				<attribute name="fused_names" version="0" value="503"/>
			</rt_info>
			<input>
				<port id="0" precision="FP32">
					<dim>1</dim>
					<dim>32</dim>
					<dim>256</dim>
					<dim>256</dim>
				</port>
				<port id="1" precision="FP32">
					<dim>1</dim>
					<dim>32</dim>
					<dim>1</dim>
					<dim>1</dim>
				</port>
			</input>
			<output>
				<port id="2" precision="FP32">
					<dim>1</dim>
					<dim>32</dim>
					<dim>256</dim>
					<dim>256</dim>
				</port>
			</output>
		</layer>
		<layer id="35" name="Reshape_5257_compressed" type="Const" version="opset1">
			<data element_type="f16" shape="1, 32, 1, 1" offset="2596" size="64"/>
			<output>
				<port id="0" precision="FP16">
					<dim>1</dim>
					<dim>32</dim>
					<dim>1</dim>
					<dim>1</dim>
				</port>
			</output>
		</layer>
		<layer id="36" name="Reshape_5257" type="Convert" version="opset1">
			<data destination_type="f32"/>
			<rt_info>
				<attribute name="decompression" version="0"/>
			</rt_info>
			<input>
				<port id="0" precision="FP16">
					<dim>1</dim>
					<dim>32</dim>
					<dim>1</dim>
					<dim>1</dim>
				</port>
			</input>
			<output>
				<port id="1" precision="FP32">
					<dim>1</dim>
					<dim>32</dim>
					<dim>1</dim>
					<dim>1</dim>
				</port>
			</output>
		</layer>
		<layer id="37" name="Multiply_5267" type="Multiply" version="opset1">
			<data auto_broadcast="numpy"/>
			<rt_info>
				<attribute name="fused_names" version="0" value="503"/>
			</rt_info>
			<input>
				<port id="0" precision="FP32">
					<dim>1</dim>
					<dim>32</dim>
					<dim>256</dim>
					<dim>256</dim>
				</port>
				<port id="1" precision="FP32">
					<dim>1</dim>
					<dim>32</dim>
					<dim>1</dim>
					<dim>1</dim>
				</port>
			</input>
			<output>
				<port id="2" precision="FP32">
					<dim>1</dim>
					<dim>32</dim>
					<dim>256</dim>
					<dim>256</dim>
				</port>
			</output>
		</layer>
		<layer id="38" name="Reshape_5260_compressed" type="Const" version="opset1">
			<data element_type="f16" shape="1, 32, 1, 1" offset="2660" size="64"/>
			<output>
				<port id="0" precision="FP16">
					<dim>1</dim>
					<dim>32</dim>
					<dim>1</dim>
					<dim>1</dim>
				</port>
			</output>
		</layer>
		<layer id="39" name="Reshape_5260" type="Convert" version="opset1">
			<data destination_type="f32"/>
			<rt_info>
				<attribute name="decompression" version="0"/>
			</rt_info>
			<input>
				<port id="0" precision="FP16">
					<dim>1</dim>
					<dim>32</dim>
					<dim>1</dim>
					<dim>1</dim>
				</port>
			</input>
			<output>
				<port id="1" precision="FP32">
					<dim>1</dim>
					<dim>32</dim>
					<dim>1</dim>
					<dim>1</dim>
				</port>
			</output>
		</layer>
		<layer id="40" name="503" type="Add" version="opset1">
			<data auto_broadcast="numpy"/>
			<rt_info>
				<attribute name="fused_names" version="0" value="503"/>
			</rt_info>
			<input>
				<port id="0" precision="FP32">
					<dim>1</dim>
					<dim>32</dim>
					<dim>256</dim>
					<dim>256</dim>
				</port>
				<port id="1" precision="FP32">
					<dim>1</dim>
					<dim>32</dim>
					<dim>1</dim>
					<dim>1</dim>
				</port>
			</input>
			<output>
				<port id="2" precision="FP32" names="503">
					<dim>1</dim>
					<dim>32</dim>
					<dim>256</dim>
					<dim>256</dim>
				</port>
			</output>
		</layer>
		<layer id="41" name="504" type="Clamp" version="opset1">
			<data min="0" max="6"/>
			<rt_info>
				<attribute name="fused_names" version="0" value="504"/>
			</rt_info>
			<input>
				<port id="0" precision="FP32">
					<dim>1</dim>
					<dim>32</dim>
					<dim>256</dim>
					<dim>256</dim>
				</port>
			</input>
			<output>
				<port id="1" precision="FP32" names="504">
					<dim>1</dim>
					<dim>32</dim>
					<dim>256</dim>
					<dim>256</dim>
				</port>
			</output>
		</layer>
		<layer id="42" name="backbone.features.1.conv.3.weight_compressed" type="Const" version="opset1">
			<data element_type="f16" shape="16, 32, 1, 1" offset="2724" size="1024"/>
			<output>
				<port id="0" precision="FP16">
					<dim>16</dim>
					<dim>32</dim>
					<dim>1</dim>
					<dim>1</dim>
				</port>
			</output>
		</layer>
		<layer id="43" name="backbone.features.1.conv.3.weight" type="Convert" version="opset1">
			<data destination_type="f32"/>
			<rt_info>
				<attribute name="decompression" version="0"/>
				<attribute name="fused_names" version="0" value="backbone.features.1.conv.3.weight"/>
			</rt_info>
			<input>
				<port id="0" precision="FP16">
					<dim>16</dim>
					<dim>32</dim>
					<dim>1</dim>
					<dim>1</dim>
				</port>
			</input>
			<output>
				<port id="1" precision="FP32" names="backbone.features.1.conv.3.weight">
					<dim>16</dim>
					<dim>32</dim>
					<dim>1</dim>
					<dim>1</dim>
				</port>
			</output>
		</layer>
		<layer id="44" name="505" type="Convolution" version="opset1">
			<data strides="1, 1" dilations="1, 1" pads_begin="0, 0" pads_end="0, 0" auto_pad="explicit"/>
			<rt_info>
				<attribute name="fused_names" version="0" value="505"/>
			</rt_info>
			<input>
				<port id="0" precision="FP32">
					<dim>1</dim>
					<dim>32</dim>
					<dim>256</dim>
					<dim>256</dim>
				</port>
				<port id="1" precision="FP32">
					<dim>16</dim>
					<dim>32</dim>
					<dim>1</dim>
					<dim>1</dim>
				</port>
			</input>
			<output>
				<port id="2" precision="FP32" names="505">
					<dim>1</dim>
					<dim>16</dim>
					<dim>256</dim>
					<dim>256</dim>
				</port>
			</output>
		</layer>
		<layer id="45" name="Reshape_5286_compressed" type="Const" version="opset1">
			<data element_type="f16" shape="1, 16, 1, 1" offset="3748" size="32"/>
			<output>
				<port id="0" precision="FP16">
					<dim>1</dim>
					<dim>16</dim>
					<dim>1</dim>
					<dim>1</dim>
				</port>
			</output>
		</layer>
		<layer id="46" name="Reshape_5286" type="Convert" version="opset1">
			<data destination_type="f32"/>
			<rt_info>
				<attribute name="decompression" version="0"/>
			</rt_info>
			<input>
				<port id="0" precision="FP16">
					<dim>1</dim>
					<dim>16</dim>
					<dim>1</dim>
					<dim>1</dim>
				</port>
			</input>
			<output>
				<port id="1" precision="FP32">
					<dim>1</dim>
					<dim>16</dim>
					<dim>1</dim>
					<dim>1</dim>
				</port>
			</output>
		</layer>
		<layer id="47" name="Subtract_5289" type="Subtract" version="opset1">
			<data auto_broadcast="numpy"/>
			<rt_info>
				<attribute name="fused_names" version="0" value="506"/>
			</rt_info>
			<input>
				<port id="0" precision="FP32">
					<dim>1</dim>
					<dim>16</dim>
					<dim>256</dim>
					<dim>256</dim>
				</port>
				<port id="1" precision="FP32">
					<dim>1</dim>
					<dim>16</dim>
					<dim>1</dim>
					<dim>1</dim>
				</port>
			</input>
			<output>
				<port id="2" precision="FP32">
					<dim>1</dim>
					<dim>16</dim>
					<dim>256</dim>
					<dim>256</dim>
				</port>
			</output>
		</layer>
		<layer id="48" name="Reshape_5280_compressed" type="Const" version="opset1">
			<data element_type="f16" shape="1, 16, 1, 1" offset="3780" size="32"/>
			<output>
				<port id="0" precision="FP16">
					<dim>1</dim>
					<dim>16</dim>
					<dim>1</dim>
					<dim>1</dim>
				</port>
			</output>
		</layer>
		<layer id="49" name="Reshape_5280" type="Convert" version="opset1">
			<data destination_type="f32"/>
			<rt_info>
				<attribute name="decompression" version="0"/>
			</rt_info>
			<input>
				<port id="0" precision="FP16">
					<dim>1</dim>
					<dim>16</dim>
					<dim>1</dim>
					<dim>1</dim>
				</port>
			</input>
			<output>
				<port id="1" precision="FP32">
					<dim>1</dim>
					<dim>16</dim>
					<dim>1</dim>
					<dim>1</dim>
				</port>
			</output>
		</layer>
		<layer id="50" name="Multiply_5290" type="Multiply" version="opset1">
			<data auto_broadcast="numpy"/>
			<rt_info>
				<attribute name="fused_names" version="0" value="506"/>
			</rt_info>
			<input>
				<port id="0" precision="FP32">
					<dim>1</dim>
					<dim>16</dim>
					<dim>256</dim>
					<dim>256</dim>
				</port>
				<port id="1" precision="FP32">
					<dim>1</dim>
					<dim>16</dim>
					<dim>1</dim>
					<dim>1</dim>
				</port>
			</input>
			<output>
				<port id="2" precision="FP32">
					<dim>1</dim>
					<dim>16</dim>
					<dim>256</dim>
					<dim>256</dim>
				</port>
			</output>
		</layer>
		<layer id="51" name="Reshape_5283_compressed" type="Const" version="opset1">
			<data element_type="f16" shape="1, 16, 1, 1" offset="3812" size="32"/>
			<output>
				<port id="0" precision="FP16">
					<dim>1</dim>
					<dim>16</dim>
					<dim>1</dim>
					<dim>1</dim>
				</port>
			</output>
		</layer>
		<layer id="52" name="Reshape_5283" type="Convert" version="opset1">
			<data destination_type="f32"/>
			<rt_info>
				<attribute name="decompression" version="0"/>
			</rt_info>
			<input>
				<port id="0" precision="FP16">
					<dim>1</dim>
					<dim>16</dim>
					<dim>1</dim>
					<dim>1</dim>
				</port>
			</input>
			<output>
				<port id="1" precision="FP32">
					<dim>1</dim>
					<dim>16</dim>
					<dim>1</dim>
					<dim>1</dim>
				</port>
			</output>
		</layer>
		<layer id="53" name="506" type="Add" version="opset1">
			<data auto_broadcast="numpy"/>
			<rt_info>
				<attribute name="fused_names" version="0" value="506"/>
			</rt_info>
			<input>
				<port id="0" precision="FP32">
					<dim>1</dim>
					<dim>16</dim>
					<dim>256</dim>
					<dim>256</dim>
				</port>
				<port id="1" precision="FP32">
					<dim>1</dim>
					<dim>16</dim>
					<dim>1</dim>
					<dim>1</dim>
				</port>
			</input>
			<output>
				<port id="2" precision="FP32" names="506">
					<dim>1</dim>
					<dim>16</dim>
					<dim>256</dim>
					<dim>256</dim>
				</port>
			</output>
		</layer>
		<layer id="54" name="backbone.features.2.conv.0.weight_compressed" type="Const" version="opset1">
			<data element_type="f16" shape="96, 16, 1, 1" offset="3844" size="3072"/>
			<output>
				<port id="0" precision="FP16">
					<dim>96</dim>
					<dim>16</dim>
					<dim>1</dim>
					<dim>1</dim>
				</port>
			</output>
		</layer>
		<layer id="55" name="backbone.features.2.conv.0.weight" type="Convert" version="opset1">
			<data destination_type="f32"/>
			<rt_info>
				<attribute name="decompression" version="0"/>
				<attribute name="fused_names" version="0" value="backbone.features.2.conv.0.weight"/>
			</rt_info>
			<input>
				<port id="0" precision="FP16">
					<dim>96</dim>
					<dim>16</dim>
					<dim>1</dim>
					<dim>1</dim>
				</port>
			</input>
			<output>
				<port id="1" precision="FP32" names="backbone.features.2.conv.0.weight">
					<dim>96</dim>
					<dim>16</dim>
					<dim>1</dim>
					<dim>1</dim>
				</port>
			</output>
		</layer>
		<layer id="56" name="507" type="Convolution" version="opset1">
			<data strides="1, 1" dilations="1, 1" pads_begin="0, 0" pads_end="0, 0" auto_pad="explicit"/>
			<rt_info>
				<attribute name="fused_names" version="0" value="507"/>
			</rt_info>
			<input>
				<port id="0" precision="FP32">
					<dim>1</dim>
					<dim>16</dim>
					<dim>256</dim>
					<dim>256</dim>
				</port>
				<port id="1" precision="FP32">
					<dim>96</dim>
					<dim>16</dim>
					<dim>1</dim>
					<dim>1</dim>
				</port>
			</input>
			<output>
				<port id="2" precision="FP32" names="507">
					<dim>1</dim>
					<dim>96</dim>
					<dim>256</dim>
					<dim>256</dim>
				</port>
			</output>
		</layer>
		<layer id="57" name="Reshape_5309_compressed" type="Const" version="opset1">
			<data element_type="f16" shape="1, 96, 1, 1" offset="6916" size="192"/>
			<output>
				<port id="0" precision="FP16">
					<dim>1</dim>
					<dim>96</dim>
					<dim>1</dim>
					<dim>1</dim>
				</port>
			</output>
		</layer>
		<layer id="58" name="Reshape_5309" type="Convert" version="opset1">
			<data destination_type="f32"/>
			<rt_info>
				<attribute name="decompression" version="0"/>
			</rt_info>
			<input>
				<port id="0" precision="FP16">
					<dim>1</dim>
					<dim>96</dim>
					<dim>1</dim>
					<dim>1</dim>
				</port>
			</input>
			<output>
				<port id="1" precision="FP32">
					<dim>1</dim>
					<dim>96</dim>
					<dim>1</dim>
					<dim>1</dim>
				</port>
			</output>
		</layer>
		<layer id="59" name="Subtract_5312" type="Subtract" version="opset1">
			<data auto_broadcast="numpy"/>
			<rt_info>
				<attribute name="fused_names" version="0" value="508"/>
			</rt_info>
			<input>
				<port id="0" precision="FP32">
					<dim>1</dim>
					<dim>96</dim>
					<dim>256</dim>
					<dim>256</dim>
				</port>
				<port id="1" precision="FP32">
					<dim>1</dim>
					<dim>96</dim>
					<dim>1</dim>
					<dim>1</dim>
				</port>
			</input>
			<output>
				<port id="2" precision="FP32">
					<dim>1</dim>
					<dim>96</dim>
					<dim>256</dim>
					<dim>256</dim>
				</port>
			</output>
		</layer>
		<layer id="60" name="Reshape_5303_compressed" type="Const" version="opset1">
			<data element_type="f16" shape="1, 96, 1, 1" offset="7108" size="192"/>
			<output>
				<port id="0" precision="FP16">
					<dim>1</dim>
					<dim>96</dim>
					<dim>1</dim>
					<dim>1</dim>
				</port>
			</output>
		</layer>
		<layer id="61" name="Reshape_5303" type="Convert" version="opset1">
			<data destination_type="f32"/>
			<rt_info>
				<attribute name="decompression" version="0"/>
			</rt_info>
			<input>
				<port id="0" precision="FP16">
					<dim>1</dim>
					<dim>96</dim>
					<dim>1</dim>
					<dim>1</dim>
				</port>
			</input>
			<output>
				<port id="1" precision="FP32">
					<dim>1</dim>
					<dim>96</dim>
					<dim>1</dim>
					<dim>1</dim>
				</port>
			</output>
		</layer>
		<layer id="62" name="Multiply_5313" type="Multiply" version="opset1">
			<data auto_broadcast="numpy"/>
			<rt_info>
				<attribute name="fused_names" version="0" value="508"/>
			</rt_info>
			<input>
				<port id="0" precision="FP32">
					<dim>1</dim>
					<dim>96</dim>
					<dim>256</dim>
					<dim>256</dim>
				</port>
				<port id="1" precision="FP32">
					<dim>1</dim>
					<dim>96</dim>
					<dim>1</dim>
					<dim>1</dim>
				</port>
			</input>
			<output>
				<port id="2" precision="FP32">
					<dim>1</dim>
					<dim>96</dim>
					<dim>256</dim>
					<dim>256</dim>
				</port>
			</output>
		</layer>
		<layer id="63" name="Reshape_5306_compressed" type="Const" version="opset1">
			<data element_type="f16" shape="1, 96, 1, 1" offset="7300" size="192"/>
			<output>
				<port id="0" precision="FP16">
					<dim>1</dim>
					<dim>96</dim>
					<dim>1</dim>
					<dim>1</dim>
				</port>
			</output>
		</layer>
		<layer id="64" name="Reshape_5306" type="Convert" version="opset1">
			<data destination_type="f32"/>
			<rt_info>
				<attribute name="decompression" version="0"/>
			</rt_info>
			<input>
				<port id="0" precision="FP16">
					<dim>1</dim>
					<dim>96</dim>
					<dim>1</dim>
					<dim>1</dim>
				</port>
			</input>
			<output>
				<port id="1" precision="FP32">
					<dim>1</dim>
					<dim>96</dim>
					<dim>1</dim>
					<dim>1</dim>
				</port>
			</output>
		</layer>
		<layer id="65" name="508" type="Add" version="opset1">
			<data auto_broadcast="numpy"/>
			<rt_info>
				<attribute name="fused_names" version="0" value="508"/>
			</rt_info>
			<input>
				<port id="0" precision="FP32">
					<dim>1</dim>
					<dim>96</dim>
					<dim>256</dim>
					<dim>256</dim>
				</port>
				<port id="1" precision="FP32">
					<dim>1</dim>
					<dim>96</dim>
					<dim>1</dim>
					<dim>1</dim>
				</port>
			</input>
			<output>
				<port id="2" precision="FP32" names="508">
					<dim>1</dim>
					<dim>96</dim>
					<dim>256</dim>
					<dim>256</dim>
				</port>
			</output>
		</layer>
		<layer id="66" name="509" type="Clamp" version="opset1">
			<data min="0" max="6"/>
			<rt_info>
				<attribute name="fused_names" version="0" value="509"/>
			</rt_info>
			<input>
				<port id="0" precision="FP32">
					<dim>1</dim>
					<dim>96</dim>
					<dim>256</dim>
					<dim>256</dim>
				</port>
			</input>
			<output>
				<port id="1" precision="FP32" names="509">
					<dim>1</dim>
					<dim>96</dim>
					<dim>256</dim>
					<dim>256</dim>
				</port>
			</output>
		</layer>
		<layer id="67" name="Reshape_553_compressed" type="Const" version="opset1">
			<data element_type="f16" shape="96, 1, 1, 3, 3" offset="7492" size="1728"/>
			<output>
				<port id="0" precision="FP16">
					<dim>96</dim>
					<dim>1</dim>
					<dim>1</dim>
					<dim>3</dim>
					<dim>3</dim>
				</port>
			</output>
		</layer>
		<layer id="68" name="Reshape_553" type="Convert" version="opset1">
			<data destination_type="f32"/>
			<rt_info>
				<attribute name="decompression" version="0"/>
			</rt_info>
			<input>
				<port id="0" precision="FP16">
					<dim>96</dim>
					<dim>1</dim>
					<dim>1</dim>
					<dim>3</dim>
					<dim>3</dim>
				</port>
			</input>
			<output>
				<port id="1" precision="FP32">
					<dim>96</dim>
					<dim>1</dim>
					<dim>1</dim>
					<dim>3</dim>
					<dim>3</dim>
				</port>
			</output>
		</layer>
		<layer id="69" name="510" type="GroupConvolution" version="opset1">
			<data strides="2, 2" pads_begin="1, 1" pads_end="1, 1" dilations="1, 1" auto_pad="explicit"/>
			<rt_info>
				<attribute name="fused_names" version="0" value="510, Reshape_553"/>
			</rt_info>
			<input>
				<port id="0" precision="FP32">
					<dim>1</dim>
					<dim>96</dim>
					<dim>256</dim>
					<dim>256</dim>
				</port>
				<port id="1" precision="FP32">
					<dim>96</dim>
					<dim>1</dim>
					<dim>1</dim>
					<dim>3</dim>
					<dim>3</dim>
				</port>
			</input>
			<output>
				<port id="2" precision="FP32" names="510">
					<dim>1</dim>
					<dim>96</dim>
					<dim>128</dim>
					<dim>128</dim>
				</port>
			</output>
		</layer>
		<layer id="70" name="Reshape_5332_compressed" type="Const" version="opset1">
			<data element_type="f16" shape="1, 96, 1, 1" offset="9220" size="192"/>
			<output>
				<port id="0" precision="FP16">
					<dim>1</dim>
					<dim>96</dim>
					<dim>1</dim>
					<dim>1</dim>
				</port>
			</output>
		</layer>
		<layer id="71" name="Reshape_5332" type="Convert" version="opset1">
			<data destination_type="f32"/>
			<rt_info>
				<attribute name="decompression" version="0"/>
			</rt_info>
			<input>
				<port id="0" precision="FP16">
					<dim>1</dim>
					<dim>96</dim>
					<dim>1</dim>
					<dim>1</dim>
				</port>
			</input>
			<output>
				<port id="1" precision="FP32">
					<dim>1</dim>
					<dim>96</dim>
					<dim>1</dim>
					<dim>1</dim>
				</port>
			</output>
		</layer>
		<layer id="72" name="Subtract_5335" type="Subtract" version="opset1">
			<data auto_broadcast="numpy"/>
			<rt_info>
				<attribute name="fused_names" version="0" value="511"/>
			</rt_info>
			<input>
				<port id="0" precision="FP32">
					<dim>1</dim>
					<dim>96</dim>
					<dim>128</dim>
					<dim>128</dim>
				</port>
				<port id="1" precision="FP32">
					<dim>1</dim>
					<dim>96</dim>
					<dim>1</dim>
					<dim>1</dim>
				</port>
			</input>
			<output>
				<port id="2" precision="FP32">
					<dim>1</dim>
					<dim>96</dim>
					<dim>128</dim>
					<dim>128</dim>
				</port>
			</output>
		</layer>
		<layer id="73" name="Reshape_5326_compressed" type="Const" version="opset1">
			<data element_type="f16" shape="1, 96, 1, 1" offset="9412" size="192"/>
			<output>
				<port id="0" precision="FP16">
					<dim>1</dim>
					<dim>96</dim>
					<dim>1</dim>
					<dim>1</dim>
				</port>
			</output>
		</layer>
		<layer id="74" name="Reshape_5326" type="Convert" version="opset1">
			<data destination_type="f32"/>
			<rt_info>
				<attribute name="decompression" version="0"/>
			</rt_info>
			<input>
				<port id="0" precision="FP16">
					<dim>1</dim>
					<dim>96</dim>
					<dim>1</dim>
					<dim>1</dim>
				</port>
			</input>
			<output>
				<port id="1" precision="FP32">
					<dim>1</dim>
					<dim>96</dim>
					<dim>1</dim>
					<dim>1</dim>
				</port>
			</output>
		</layer>
		<layer id="75" name="Multiply_5336" type="Multiply" version="opset1">
			<data auto_broadcast="numpy"/>
			<rt_info>
				<attribute name="fused_names" version="0" value="511"/>
			</rt_info>
			<input>
				<port id="0" precision="FP32">
					<dim>1</dim>
					<dim>96</dim>
					<dim>128</dim>
					<dim>128</dim>
				</port>
				<port id="1" precision="FP32">
					<dim>1</dim>
					<dim>96</dim>
					<dim>1</dim>
					<dim>1</dim>
				</port>
			</input>
			<output>
				<port id="2" precision="FP32">
					<dim>1</dim>
					<dim>96</dim>
					<dim>128</dim>
					<dim>128</dim>
				</port>
			</output>
		</layer>
		<layer id="76" name="Reshape_5329_compressed" type="Const" version="opset1">
			<data element_type="f16" shape="1, 96, 1, 1" offset="9604" size="192"/>
			<output>
				<port id="0" precision="FP16">
					<dim>1</dim>
					<dim>96</dim>
					<dim>1</dim>
					<dim>1</dim>
				</port>
			</output>
		</layer>
		<layer id="77" name="Reshape_5329" type="Convert" version="opset1">
			<data destination_type="f32"/>
			<rt_info>
				<attribute name="decompression" version="0"/>
			</rt_info>
			<input>
				<port id="0" precision="FP16">
					<dim>1</dim>
					<dim>96</dim>
					<dim>1</dim>
					<dim>1</dim>
				</port>
			</input>
			<output>
				<port id="1" precision="FP32">
					<dim>1</dim>
					<dim>96</dim>
					<dim>1</dim>
					<dim>1</dim>
				</port>
			</output>
		</layer>
		<layer id="78" name="511" type="Add" version="opset1">
			<data auto_broadcast="numpy"/>
			<rt_info>
				<attribute name="fused_names" version="0" value="511"/>
			</rt_info>
			<input>
				<port id="0" precision="FP32">
					<dim>1</dim>
					<dim>96</dim>
					<dim>128</dim>
					<dim>128</dim>
				</port>
				<port id="1" precision="FP32">
					<dim>1</dim>
					<dim>96</dim>
					<dim>1</dim>
					<dim>1</dim>
				</port>
			</input>
			<output>
				<port id="2" precision="FP32" names="511">
					<dim>1</dim>
					<dim>96</dim>
					<dim>128</dim>
					<dim>128</dim>
				</port>
			</output>
		</layer>
		<layer id="79" name="512" type="Clamp" version="opset1">
			<data min="0" max="6"/>
			<rt_info>
				<attribute name="fused_names" version="0" value="512"/>
			</rt_info>
			<input>
				<port id="0" precision="FP32">
					<dim>1</dim>
					<dim>96</dim>
					<dim>128</dim>
					<dim>128</dim>
				</port>
			</input>
			<output>
				<port id="1" precision="FP32" names="512">
					<dim>1</dim>
					<dim>96</dim>
					<dim>128</dim>
					<dim>128</dim>
				</port>
			</output>
		</layer>
		<layer id="80" name="backbone.features.2.conv.6.weight_compressed" type="Const" version="opset1">
			<data element_type="f16" shape="24, 96, 1, 1" offset="9796" size="4608"/>
			<output>
				<port id="0" precision="FP16">
					<dim>24</dim>
					<dim>96</dim>
					<dim>1</dim>
					<dim>1</dim>
				</port>
			</output>
		</layer>
		<layer id="81" name="backbone.features.2.conv.6.weight" type="Convert" version="opset1">
			<data destination_type="f32"/>
			<rt_info>
				<attribute name="decompression" version="0"/>
				<attribute name="fused_names" version="0" value="backbone.features.2.conv.6.weight"/>
			</rt_info>
			<input>
				<port id="0" precision="FP16">
					<dim>24</dim>
					<dim>96</dim>
					<dim>1</dim>
					<dim>1</dim>
				</port>
			</input>
			<output>
				<port id="1" precision="FP32" names="backbone.features.2.conv.6.weight">
					<dim>24</dim>
					<dim>96</dim>
					<dim>1</dim>
					<dim>1</dim>
				</port>
			</output>
		</layer>
		<layer id="82" name="513" type="Convolution" version="opset1">
			<data strides="1, 1" dilations="1, 1" pads_begin="0, 0" pads_end="0, 0" auto_pad="explicit"/>
			<rt_info>
				<attribute name="fused_names" version="0" value="513"/>
			</rt_info>
			<input>
				<port id="0" precision="FP32">
					<dim>1</dim>
					<dim>96</dim>
					<dim>128</dim>
					<dim>128</dim>
				</port>
				<port id="1" precision="FP32">
					<dim>24</dim>
					<dim>96</dim>
					<dim>1</dim>
					<dim>1</dim>
				</port>
			</input>
			<output>
				<port id="2" precision="FP32" names="513">
					<dim>1</dim>
					<dim>24</dim>
					<dim>128</dim>
					<dim>128</dim>
				</port>
			</output>
		</layer>
		<layer id="83" name="Reshape_5355_compressed" type="Const" version="opset1">
			<data element_type="f16" shape="1, 24, 1, 1" offset="14404" size="48"/>
			<output>
				<port id="0" precision="FP16">
					<dim>1</dim>
					<dim>24</dim>
					<dim>1</dim>
					<dim>1</dim>
				</port>
			</output>
		</layer>
		<layer id="84" name="Reshape_5355" type="Convert" version="opset1">
			<data destination_type="f32"/>
			<rt_info>
				<attribute name="decompression" version="0"/>
			</rt_info>
			<input>
				<port id="0" precision="FP16">
					<dim>1</dim>
					<dim>24</dim>
					<dim>1</dim>
					<dim>1</dim>
				</port>
			</input>
			<output>
				<port id="1" precision="FP32">
					<dim>1</dim>
					<dim>24</dim>
					<dim>1</dim>
					<dim>1</dim>
				</port>
			</output>
		</layer>
		<layer id="85" name="Subtract_5358" type="Subtract" version="opset1">
			<data auto_broadcast="numpy"/>
			<rt_info>
				<attribute name="fused_names" version="0" value="514"/>
			</rt_info>
			<input>
				<port id="0" precision="FP32">
					<dim>1</dim>
					<dim>24</dim>
					<dim>128</dim>
					<dim>128</dim>
				</port>
				<port id="1" precision="FP32">
					<dim>1</dim>
					<dim>24</dim>
					<dim>1</dim>
					<dim>1</dim>
				</port>
			</input>
			<output>
				<port id="2" precision="FP32">
					<dim>1</dim>
					<dim>24</dim>
					<dim>128</dim>
					<dim>128</dim>
				</port>
			</output>
		</layer>
		<layer id="86" name="Reshape_5349_compressed" type="Const" version="opset1">
			<data element_type="f16" shape="1, 24, 1, 1" offset="14452" size="48"/>
			<output>
				<port id="0" precision="FP16">
					<dim>1</dim>
					<dim>24</dim>
					<dim>1</dim>
					<dim>1</dim>
				</port>
			</output>
		</layer>
		<layer id="87" name="Reshape_5349" type="Convert" version="opset1">
			<data destination_type="f32"/>
			<rt_info>
				<attribute name="decompression" version="0"/>
			</rt_info>
			<input>
				<port id="0" precision="FP16">
					<dim>1</dim>
					<dim>24</dim>
					<dim>1</dim>
					<dim>1</dim>
				</port>
			</input>
			<output>
				<port id="1" precision="FP32">
					<dim>1</dim>
					<dim>24</dim>
					<dim>1</dim>
					<dim>1</dim>
				</port>
			</output>
		</layer>
		<layer id="88" name="Multiply_5359" type="Multiply" version="opset1">
			<data auto_broadcast="numpy"/>
			<rt_info>
				<attribute name="fused_names" version="0" value="514"/>
			</rt_info>
			<input>
				<port id="0" precision="FP32">
					<dim>1</dim>
					<dim>24</dim>
					<dim>128</dim>
					<dim>128</dim>
				</port>
				<port id="1" precision="FP32">
					<dim>1</dim>
					<dim>24</dim>
					<dim>1</dim>
					<dim>1</dim>
				</port>
			</input>
			<output>
				<port id="2" precision="FP32">
					<dim>1</dim>
					<dim>24</dim>
					<dim>128</dim>
					<dim>128</dim>
				</port>
			</output>
		</layer>
		<layer id="89" name="Reshape_5352_compressed" type="Const" version="opset1">
			<data element_type="f16" shape="1, 24, 1, 1" offset="14500" size="48"/>
			<output>
				<port id="0" precision="FP16">
					<dim>1</dim>
					<dim>24</dim>
					<dim>1</dim>
					<dim>1</dim>
				</port>
			</output>
		</layer>
		<layer id="90" name="Reshape_5352" type="Convert" version="opset1">
			<data destination_type="f32"/>
			<rt_info>
				<attribute name="decompression" version="0"/>
			</rt_info>
			<input>
				<port id="0" precision="FP16">
					<dim>1</dim>
					<dim>24</dim>
					<dim>1</dim>
					<dim>1</dim>
				</port>
			</input>
			<output>
				<port id="1" precision="FP32">
					<dim>1</dim>
					<dim>24</dim>
					<dim>1</dim>
					<dim>1</dim>
				</port>
			</output>
		</layer>
		<layer id="91" name="514" type="Add" version="opset1">
			<data auto_broadcast="numpy"/>
			<rt_info>
				<attribute name="fused_names" version="0" value="514"/>
			</rt_info>
			<input>
				<port id="0" precision="FP32">
					<dim>1</dim>
					<dim>24</dim>
					<dim>128</dim>
					<dim>128</dim>
				</port>
				<port id="1" precision="FP32">
					<dim>1</dim>
					<dim>24</dim>
					<dim>1</dim>
					<dim>1</dim>
				</port>
			</input>
			<output>
				<port id="2" precision="FP32" names="514">
					<dim>1</dim>
					<dim>24</dim>
					<dim>128</dim>
					<dim>128</dim>
				</port>
			</output>
		</layer>
		<layer id="92" name="backbone.features.3.conv.0.weight_compressed" type="Const" version="opset1">
			<data element_type="f16" shape="144, 24, 1, 1" offset="14548" size="6912"/>
			<output>
				<port id="0" precision="FP16">
					<dim>144</dim>
					<dim>24</dim>
					<dim>1</dim>
					<dim>1</dim>
				</port>
			</output>
		</layer>
		<layer id="93" name="backbone.features.3.conv.0.weight" type="Convert" version="opset1">
			<data destination_type="f32"/>
			<rt_info>
				<attribute name="decompression" version="0"/>
				<attribute name="fused_names" version="0" value="backbone.features.3.conv.0.weight"/>
			</rt_info>
			<input>
				<port id="0" precision="FP16">
					<dim>144</dim>
					<dim>24</dim>
					<dim>1</dim>
					<dim>1</dim>
				</port>
			</input>
			<output>
				<port id="1" precision="FP32" names="backbone.features.3.conv.0.weight">
					<dim>144</dim>
					<dim>24</dim>
					<dim>1</dim>
					<dim>1</dim>
				</port>
			</output>
		</layer>
		<layer id="94" name="515" type="Convolution" version="opset1">
			<data strides="1, 1" dilations="1, 1" pads_begin="0, 0" pads_end="0, 0" auto_pad="explicit"/>
			<rt_info>
				<attribute name="fused_names" version="0" value="515"/>
			</rt_info>
			<input>
				<port id="0" precision="FP32">
					<dim>1</dim>
					<dim>24</dim>
					<dim>128</dim>
					<dim>128</dim>
				</port>
				<port id="1" precision="FP32">
					<dim>144</dim>
					<dim>24</dim>
					<dim>1</dim>
					<dim>1</dim>
				</port>
			</input>
			<output>
				<port id="2" precision="FP32" names="515">
					<dim>1</dim>
					<dim>144</dim>
					<dim>128</dim>
					<dim>128</dim>
				</port>
			</output>
		</layer>
		<layer id="95" name="Reshape_5378_compressed" type="Const" version="opset1">
			<data element_type="f16" shape="1, 144, 1, 1" offset="21460" size="288"/>
			<output>
				<port id="0" precision="FP16">
					<dim>1</dim>
					<dim>144</dim>
					<dim>1</dim>
					<dim>1</dim>
				</port>
			</output>
		</layer>
		<layer id="96" name="Reshape_5378" type="Convert" version="opset1">
			<data destination_type="f32"/>
			<rt_info>
				<attribute name="decompression" version="0"/>
			</rt_info>
			<input>
				<port id="0" precision="FP16">
					<dim>1</dim>
					<dim>144</dim>
					<dim>1</dim>
					<dim>1</dim>
				</port>
			</input>
			<output>
				<port id="1" precision="FP32">
					<dim>1</dim>
					<dim>144</dim>
					<dim>1</dim>
					<dim>1</dim>
				</port>
			</output>
		</layer>
		<layer id="97" name="Subtract_5381" type="Subtract" version="opset1">
			<data auto_broadcast="numpy"/>
			<rt_info>
				<attribute name="fused_names" version="0" value="516"/>
			</rt_info>
			<input>
				<port id="0" precision="FP32">
					<dim>1</dim>
					<dim>144</dim>
					<dim>128</dim>
					<dim>128</dim>
				</port>
				<port id="1" precision="FP32">
					<dim>1</dim>
					<dim>144</dim>
					<dim>1</dim>
					<dim>1</dim>
				</port>
			</input>
			<output>
				<port id="2" precision="FP32">
					<dim>1</dim>
					<dim>144</dim>
					<dim>128</dim>
					<dim>128</dim>
				</port>
			</output>
		</layer>
		<layer id="98" name="Reshape_5372_compressed" type="Const" version="opset1">
			<data element_type="f16" shape="1, 144, 1, 1" offset="21748" size="288"/>
			<output>
				<port id="0" precision="FP16">
					<dim>1</dim>
					<dim>144</dim>
					<dim>1</dim>
					<dim>1</dim>
				</port>
			</output>
		</layer>
		<layer id="99" name="Reshape_5372" type="Convert" version="opset1">
			<data destination_type="f32"/>
			<rt_info>
				<attribute name="decompression" version="0"/>
			</rt_info>
			<input>
				<port id="0" precision="FP16">
					<dim>1</dim>
					<dim>144</dim>
					<dim>1</dim>
					<dim>1</dim>
				</port>
			</input>
			<output>
				<port id="1" precision="FP32">
					<dim>1</dim>
					<dim>144</dim>
					<dim>1</dim>
					<dim>1</dim>
				</port>
			</output>
		</layer>
		<layer id="100" name="Multiply_5382" type="Multiply" version="opset1">
			<data auto_broadcast="numpy"/>
			<rt_info>
				<attribute name="fused_names" version="0" value="516"/>
			</rt_info>
			<input>
				<port id="0" precision="FP32">
					<dim>1</dim>
					<dim>144</dim>
					<dim>128</dim>
					<dim>128</dim>
				</port>
				<port id="1" precision="FP32">
					<dim>1</dim>
					<dim>144</dim>
					<dim>1</dim>
					<dim>1</dim>
				</port>
			</input>
			<output>
				<port id="2" precision="FP32">
					<dim>1</dim>
					<dim>144</dim>
					<dim>128</dim>
					<dim>128</dim>
				</port>
			</output>
		</layer>
		<layer id="101" name="Reshape_5375_compressed" type="Const" version="opset1">
			<data element_type="f16" shape="1, 144, 1, 1" offset="22036" size="288"/>
			<output>
				<port id="0" precision="FP16">
					<dim>1</dim>
					<dim>144</dim>
					<dim>1</dim>
					<dim>1</dim>
				</port>
			</output>
		</layer>
		<layer id="102" name="Reshape_5375" type="Convert" version="opset1">
			<data destination_type="f32"/>
			<rt_info>
				<attribute name="decompression" version="0"/>
			</rt_info>
			<input>
				<port id="0" precision="FP16">
					<dim>1</dim>
					<dim>144</dim>
					<dim>1</dim>
					<dim>1</dim>
				</port>
			</input>
			<output>
				<port id="1" precision="FP32">
					<dim>1</dim>
					<dim>144</dim>
					<dim>1</dim>
					<dim>1</dim>
				</port>
			</output>
		</layer>
		<layer id="103" name="516" type="Add" version="opset1">
			<data auto_broadcast="numpy"/>
			<rt_info>
				<attribute name="fused_names" version="0" value="516"/>
			</rt_info>
			<input>
				<port id="0" precision="FP32">
					<dim>1</dim>
					<dim>144</dim>
					<dim>128</dim>
					<dim>128</dim>
				</port>
				<port id="1" precision="FP32">
					<dim>1</dim>
					<dim>144</dim>
					<dim>1</dim>
					<dim>1</dim>
				</port>
			</input>
			<output>
				<port id="2" precision="FP32" names="516">
					<dim>1</dim>
					<dim>144</dim>
					<dim>128</dim>
					<dim>128</dim>
				</port>
			</output>
		</layer>
		<layer id="104" name="517" type="Clamp" version="opset1">
			<data min="0" max="6"/>
			<rt_info>
				<attribute name="fused_names" version="0" value="517"/>
			</rt_info>
			<input>
				<port id="0" precision="FP32">
					<dim>1</dim>
					<dim>144</dim>
					<dim>128</dim>
					<dim>128</dim>
				</port>
			</input>
			<output>
				<port id="1" precision="FP32" names="517">
					<dim>1</dim>
					<dim>144</dim>
					<dim>128</dim>
					<dim>128</dim>
				</port>
			</output>
		</layer>
		<layer id="105" name="Reshape_595_compressed" type="Const" version="opset1">
			<data element_type="f16" shape="144, 1, 1, 3, 3" offset="22324" size="2592"/>
			<output>
				<port id="0" precision="FP16">
					<dim>144</dim>
					<dim>1</dim>
					<dim>1</dim>
					<dim>3</dim>
					<dim>3</dim>
				</port>
			</output>
		</layer>
		<layer id="106" name="Reshape_595" type="Convert" version="opset1">
			<data destination_type="f32"/>
			<rt_info>
				<attribute name="decompression" version="0"/>
			</rt_info>
			<input>
				<port id="0" precision="FP16">
					<dim>144</dim>
					<dim>1</dim>
					<dim>1</dim>
					<dim>3</dim>
					<dim>3</dim>
				</port>
			</input>
			<output>
				<port id="1" precision="FP32">
					<dim>144</dim>
					<dim>1</dim>
					<dim>1</dim>
					<dim>3</dim>
					<dim>3</dim>
				</port>
			</output>
		</layer>
		<layer id="107" name="518" type="GroupConvolution" version="opset1">
			<data strides="1, 1" pads_begin="1, 1" pads_end="1, 1" dilations="1, 1" auto_pad="explicit"/>
			<rt_info>
				<attribute name="fused_names" version="0" value="518, Reshape_595"/>
			</rt_info>
			<input>
				<port id="0" precision="FP32">
					<dim>1</dim>
					<dim>144</dim>
					<dim>128</dim>
					<dim>128</dim>
				</port>
				<port id="1" precision="FP32">
					<dim>144</dim>
					<dim>1</dim>
					<dim>1</dim>
					<dim>3</dim>
					<dim>3</dim>
				</port>
			</input>
			<output>
				<port id="2" precision="FP32" names="518">
					<dim>1</dim>
					<dim>144</dim>
					<dim>128</dim>
					<dim>128</dim>
				</port>
			</output>
		</layer>
		<layer id="108" name="Reshape_5401_compressed" type="Const" version="opset1">
			<data element_type="f16" shape="1, 144, 1, 1" offset="24916" size="288"/>
			<output>
				<port id="0" precision="FP16">
					<dim>1</dim>
					<dim>144</dim>
					<dim>1</dim>
					<dim>1</dim>
				</port>
			</output>
		</layer>
		<layer id="109" name="Reshape_5401" type="Convert" version="opset1">
			<data destination_type="f32"/>
			<rt_info>
				<attribute name="decompression" version="0"/>
			</rt_info>
			<input>
				<port id="0" precision="FP16">
					<dim>1</dim>
					<dim>144</dim>
					<dim>1</dim>
					<dim>1</dim>
				</port>
			</input>
			<output>
				<port id="1" precision="FP32">
					<dim>1</dim>
					<dim>144</dim>
					<dim>1</dim>
					<dim>1</dim>
				</port>
			</output>
		</layer>
		<layer id="110" name="Subtract_5404" type="Subtract" version="opset1">
			<data auto_broadcast="numpy"/>
			<rt_info>
				<attribute name="fused_names" version="0" value="519"/>
			</rt_info>
			<input>
				<port id="0" precision="FP32">
					<dim>1</dim>
					<dim>144</dim>
					<dim>128</dim>
					<dim>128</dim>
				</port>
				<port id="1" precision="FP32">
					<dim>1</dim>
					<dim>144</dim>
					<dim>1</dim>
					<dim>1</dim>
				</port>
			</input>
			<output>
				<port id="2" precision="FP32">
					<dim>1</dim>
					<dim>144</dim>
					<dim>128</dim>
					<dim>128</dim>
				</port>
			</output>
		</layer>
		<layer id="111" name="Reshape_5395_compressed" type="Const" version="opset1">
			<data element_type="f16" shape="1, 144, 1, 1" offset="25204" size="288"/>
			<output>
				<port id="0" precision="FP16">
					<dim>1</dim>
					<dim>144</dim>
					<dim>1</dim>
					<dim>1</dim>
				</port>
			</output>
		</layer>
		<layer id="112" name="Reshape_5395" type="Convert" version="opset1">
			<data destination_type="f32"/>
			<rt_info>
				<attribute name="decompression" version="0"/>
			</rt_info>
			<input>
				<port id="0" precision="FP16">
					<dim>1</dim>
					<dim>144</dim>
					<dim>1</dim>
					<dim>1</dim>
				</port>
			</input>
			<output>
				<port id="1" precision="FP32">
					<dim>1</dim>
					<dim>144</dim>
					<dim>1</dim>
					<dim>1</dim>
				</port>
			</output>
		</layer>
		<layer id="113" name="Multiply_5405" type="Multiply" version="opset1">
			<data auto_broadcast="numpy"/>
			<rt_info>
				<attribute name="fused_names" version="0" value="519"/>
			</rt_info>
			<input>
				<port id="0" precision="FP32">
					<dim>1</dim>
					<dim>144</dim>
					<dim>128</dim>
					<dim>128</dim>
				</port>
				<port id="1" precision="FP32">
					<dim>1</dim>
					<dim>144</dim>
					<dim>1</dim>
					<dim>1</dim>
				</port>
			</input>
			<output>
				<port id="2" precision="FP32">
					<dim>1</dim>
					<dim>144</dim>
					<dim>128</dim>
					<dim>128</dim>
				</port>
			</output>
		</layer>
		<layer id="114" name="Reshape_5398_compressed" type="Const" version="opset1">
			<data element_type="f16" shape="1, 144, 1, 1" offset="25492" size="288"/>
			<output>
				<port id="0" precision="FP16">
					<dim>1</dim>
					<dim>144</dim>
					<dim>1</dim>
					<dim>1</dim>
				</port>
			</output>
		</layer>
		<layer id="115" name="Reshape_5398" type="Convert" version="opset1">
			<data destination_type="f32"/>
			<rt_info>
				<attribute name="decompression" version="0"/>
			</rt_info>
			<input>
				<port id="0" precision="FP16">
					<dim>1</dim>
					<dim>144</dim>
					<dim>1</dim>
					<dim>1</dim>
				</port>
			</input>
			<output>
				<port id="1" precision="FP32">
					<dim>1</dim>
					<dim>144</dim>
					<dim>1</dim>
					<dim>1</dim>
				</port>
			</output>
		</layer>
		<layer id="116" name="519" type="Add" version="opset1">
			<data auto_broadcast="numpy"/>
			<rt_info>
				<attribute name="fused_names" version="0" value="519"/>
			</rt_info>
			<input>
				<port id="0" precision="FP32">
					<dim>1</dim>
					<dim>144</dim>
					<dim>128</dim>
					<dim>128</dim>
				</port>
				<port id="1" precision="FP32">
					<dim>1</dim>
					<dim>144</dim>
					<dim>1</dim>
					<dim>1</dim>
				</port>
			</input>
			<output>
				<port id="2" precision="FP32" names="519">
					<dim>1</dim>
					<dim>144</dim>
					<dim>128</dim>
					<dim>128</dim>
				</port>
			</output>
		</layer>
		<layer id="117" name="520" type="Clamp" version="opset1">
			<data min="0" max="6"/>
			<rt_info>
				<attribute name="fused_names" version="0" value="520"/>
			</rt_info>
			<input>
				<port id="0" precision="FP32">
					<dim>1</dim>
					<dim>144</dim>
					<dim>128</dim>
					<dim>128</dim>
				</port>
			</input>
			<output>
				<port id="1" precision="FP32" names="520">
					<dim>1</dim>
					<dim>144</dim>
					<dim>128</dim>
					<dim>128</dim>
				</port>
			</output>
		</layer>
		<layer id="118" name="backbone.features.3.conv.6.weight_compressed" type="Const" version="opset1">
			<data element_type="f16" shape="24, 144, 1, 1" offset="25780" size="6912"/>
			<output>
				<port id="0" precision="FP16">
					<dim>24</dim>
					<dim>144</dim>
					<dim>1</dim>
					<dim>1</dim>
				</port>
			</output>
		</layer>
		<layer id="119" name="backbone.features.3.conv.6.weight" type="Convert" version="opset1">
			<data destination_type="f32"/>
			<rt_info>
				<attribute name="decompression" version="0"/>
				<attribute name="fused_names" version="0" value="backbone.features.3.conv.6.weight"/>
			</rt_info>
			<input>
				<port id="0" precision="FP16">
					<dim>24</dim>
					<dim>144</dim>
					<dim>1</dim>
					<dim>1</dim>
				</port>
			</input>
			<output>
				<port id="1" precision="FP32" names="backbone.features.3.conv.6.weight">
					<dim>24</dim>
					<dim>144</dim>
					<dim>1</dim>
					<dim>1</dim>
				</port>
			</output>
		</layer>
		<layer id="120" name="521" type="Convolution" version="opset1">
			<data strides="1, 1" dilations="1, 1" pads_begin="0, 0" pads_end="0, 0" auto_pad="explicit"/>
			<rt_info>
				<attribute name="fused_names" version="0" value="521"/>
			</rt_info>
			<input>
				<port id="0" precision="FP32">
					<dim>1</dim>
					<dim>144</dim>
					<dim>128</dim>
					<dim>128</dim>
				</port>
				<port id="1" precision="FP32">
					<dim>24</dim>
					<dim>144</dim>
					<dim>1</dim>
					<dim>1</dim>
				</port>
			</input>
			<output>
				<port id="2" precision="FP32" names="521">
					<dim>1</dim>
					<dim>24</dim>
					<dim>128</dim>
					<dim>128</dim>
				</port>
			</output>
		</layer>
		<layer id="121" name="Reshape_5424_compressed" type="Const" version="opset1">
			<data element_type="f16" shape="1, 24, 1, 1" offset="32692" size="48"/>
			<output>
				<port id="0" precision="FP16">
					<dim>1</dim>
					<dim>24</dim>
					<dim>1</dim>
					<dim>1</dim>
				</port>
			</output>
		</layer>
		<layer id="122" name="Reshape_5424" type="Convert" version="opset1">
			<data destination_type="f32"/>
			<rt_info>
				<attribute name="decompression" version="0"/>
			</rt_info>
			<input>
				<port id="0" precision="FP16">
					<dim>1</dim>
					<dim>24</dim>
					<dim>1</dim>
					<dim>1</dim>
				</port>
			</input>
			<output>
				<port id="1" precision="FP32">
					<dim>1</dim>
					<dim>24</dim>
					<dim>1</dim>
					<dim>1</dim>
				</port>
			</output>
		</layer>
		<layer id="123" name="Subtract_5427" type="Subtract" version="opset1">
			<data auto_broadcast="numpy"/>
			<rt_info>
				<attribute name="fused_names" version="0" value="522"/>
			</rt_info>
			<input>
				<port id="0" precision="FP32">
					<dim>1</dim>
					<dim>24</dim>
					<dim>128</dim>
					<dim>128</dim>
				</port>
				<port id="1" precision="FP32">
					<dim>1</dim>
					<dim>24</dim>
					<dim>1</dim>
					<dim>1</dim>
				</port>
			</input>
			<output>
				<port id="2" precision="FP32">
					<dim>1</dim>
					<dim>24</dim>
					<dim>128</dim>
					<dim>128</dim>
				</port>
			</output>
		</layer>
		<layer id="124" name="Reshape_5418_compressed" type="Const" version="opset1">
			<data element_type="f16" shape="1, 24, 1, 1" offset="32740" size="48"/>
			<output>
				<port id="0" precision="FP16">
					<dim>1</dim>
					<dim>24</dim>
					<dim>1</dim>
					<dim>1</dim>
				</port>
			</output>
		</layer>
		<layer id="125" name="Reshape_5418" type="Convert" version="opset1">
			<data destination_type="f32"/>
			<rt_info>
				<attribute name="decompression" version="0"/>
			</rt_info>
			<input>
				<port id="0" precision="FP16">
					<dim>1</dim>
					<dim>24</dim>
					<dim>1</dim>
					<dim>1</dim>
				</port>
			</input>
			<output>
				<port id="1" precision="FP32">
					<dim>1</dim>
					<dim>24</dim>
					<dim>1</dim>
					<dim>1</dim>
				</port>
			</output>
		</layer>
		<layer id="126" name="Multiply_5428" type="Multiply" version="opset1">
			<data auto_broadcast="numpy"/>
			<rt_info>
				<attribute name="fused_names" version="0" value="522"/>
			</rt_info>
			<input>
				<port id="0" precision="FP32">
					<dim>1</dim>
					<dim>24</dim>
					<dim>128</dim>
					<dim>128</dim>
				</port>
				<port id="1" precision="FP32">
					<dim>1</dim>
					<dim>24</dim>
					<dim>1</dim>
					<dim>1</dim>
				</port>
			</input>
			<output>
				<port id="2" precision="FP32">
					<dim>1</dim>
					<dim>24</dim>
					<dim>128</dim>
					<dim>128</dim>
				</port>
			</output>
		</layer>
		<layer id="127" name="Reshape_5421_compressed" type="Const" version="opset1">
			<data element_type="f16" shape="1, 24, 1, 1" offset="32788" size="48"/>
			<output>
				<port id="0" precision="FP16">
					<dim>1</dim>
					<dim>24</dim>
					<dim>1</dim>
					<dim>1</dim>
				</port>
			</output>
		</layer>
		<layer id="128" name="Reshape_5421" type="Convert" version="opset1">
			<data destination_type="f32"/>
			<rt_info>
				<attribute name="decompression" version="0"/>
			</rt_info>
			<input>
				<port id="0" precision="FP16">
					<dim>1</dim>
					<dim>24</dim>
					<dim>1</dim>
					<dim>1</dim>
				</port>
			</input>
			<output>
				<port id="1" precision="FP32">
					<dim>1</dim>
					<dim>24</dim>
					<dim>1</dim>
					<dim>1</dim>
				</port>
			</output>
		</layer>
		<layer id="129" name="522" type="Add" version="opset1">
			<data auto_broadcast="numpy"/>
			<rt_info>
				<attribute name="fused_names" version="0" value="522"/>
			</rt_info>
			<input>
				<port id="0" precision="FP32">
					<dim>1</dim>
					<dim>24</dim>
					<dim>128</dim>
					<dim>128</dim>
				</port>
				<port id="1" precision="FP32">
					<dim>1</dim>
					<dim>24</dim>
					<dim>1</dim>
					<dim>1</dim>
				</port>
			</input>
			<output>
				<port id="2" precision="FP32" names="522">
					<dim>1</dim>
					<dim>24</dim>
					<dim>128</dim>
					<dim>128</dim>
				</port>
			</output>
		</layer>
		<layer id="130" name="523" type="Add" version="opset1">
			<data auto_broadcast="numpy"/>
			<rt_info>
				<attribute name="fused_names" version="0" value="523"/>
			</rt_info>
			<input>
				<port id="0" precision="FP32">
					<dim>1</dim>
					<dim>24</dim>
					<dim>128</dim>
					<dim>128</dim>
				</port>
				<port id="1" precision="FP32">
					<dim>1</dim>
					<dim>24</dim>
					<dim>128</dim>
					<dim>128</dim>
				</port>
			</input>
			<output>
				<port id="2" precision="FP32" names="523">
					<dim>1</dim>
					<dim>24</dim>
					<dim>128</dim>
					<dim>128</dim>
				</port>
			</output>
		</layer>
		<layer id="131" name="backbone.features.4.conv.0.weight_compressed" type="Const" version="opset1">
			<data element_type="f16" shape="144, 24, 1, 1" offset="32836" size="6912"/>
			<output>
				<port id="0" precision="FP16">
					<dim>144</dim>
					<dim>24</dim>
					<dim>1</dim>
					<dim>1</dim>
				</port>
			</output>
		</layer>
		<layer id="132" name="backbone.features.4.conv.0.weight" type="Convert" version="opset1">
			<data destination_type="f32"/>
			<rt_info>
				<attribute name="decompression" version="0"/>
				<attribute name="fused_names" version="0" value="backbone.features.4.conv.0.weight"/>
			</rt_info>
			<input>
				<port id="0" precision="FP16">
					<dim>144</dim>
					<dim>24</dim>
					<dim>1</dim>
					<dim>1</dim>
				</port>
			</input>
			<output>
				<port id="1" precision="FP32" names="backbone.features.4.conv.0.weight">
					<dim>144</dim>
					<dim>24</dim>
					<dim>1</dim>
					<dim>1</dim>
				</port>
			</output>
		</layer>
		<layer id="133" name="524" type="Convolution" version="opset1">
			<data strides="1, 1" dilations="1, 1" pads_begin="0, 0" pads_end="0, 0" auto_pad="explicit"/>
			<rt_info>
				<attribute name="fused_names" version="0" value="524"/>
			</rt_info>
			<input>
				<port id="0" precision="FP32">
					<dim>1</dim>
					<dim>24</dim>
					<dim>128</dim>
					<dim>128</dim>
				</port>
				<port id="1" precision="FP32">
					<dim>144</dim>
					<dim>24</dim>
					<dim>1</dim>
					<dim>1</dim>
				</port>
			</input>
			<output>
				<port id="2" precision="FP32" names="524">
					<dim>1</dim>
					<dim>144</dim>
					<dim>128</dim>
					<dim>128</dim>
				</port>
			</output>
		</layer>
		<layer id="134" name="Reshape_5447_compressed" type="Const" version="opset1">
			<data element_type="f16" shape="1, 144, 1, 1" offset="39748" size="288"/>
			<output>
				<port id="0" precision="FP16">
					<dim>1</dim>
					<dim>144</dim>
					<dim>1</dim>
					<dim>1</dim>
				</port>
			</output>
		</layer>
		<layer id="135" name="Reshape_5447" type="Convert" version="opset1">
			<data destination_type="f32"/>
			<rt_info>
				<attribute name="decompression" version="0"/>
			</rt_info>
			<input>
				<port id="0" precision="FP16">
					<dim>1</dim>
					<dim>144</dim>
					<dim>1</dim>
					<dim>1</dim>
				</port>
			</input>
			<output>
				<port id="1" precision="FP32">
					<dim>1</dim>
					<dim>144</dim>
					<dim>1</dim>
					<dim>1</dim>
				</port>
			</output>
		</layer>
		<layer id="136" name="Subtract_5450" type="Subtract" version="opset1">
			<data auto_broadcast="numpy"/>
			<rt_info>
				<attribute name="fused_names" version="0" value="525"/>
			</rt_info>
			<input>
				<port id="0" precision="FP32">
					<dim>1</dim>
					<dim>144</dim>
					<dim>128</dim>
					<dim>128</dim>
				</port>
				<port id="1" precision="FP32">
					<dim>1</dim>
					<dim>144</dim>
					<dim>1</dim>
					<dim>1</dim>
				</port>
			</input>
			<output>
				<port id="2" precision="FP32">
					<dim>1</dim>
					<dim>144</dim>
					<dim>128</dim>
					<dim>128</dim>
				</port>
			</output>
		</layer>
		<layer id="137" name="Reshape_5441_compressed" type="Const" version="opset1">
			<data element_type="f16" shape="1, 144, 1, 1" offset="40036" size="288"/>
			<output>
				<port id="0" precision="FP16">
					<dim>1</dim>
					<dim>144</dim>
					<dim>1</dim>
					<dim>1</dim>
				</port>
			</output>
		</layer>
		<layer id="138" name="Reshape_5441" type="Convert" version="opset1">
			<data destination_type="f32"/>
			<rt_info>
				<attribute name="decompression" version="0"/>
			</rt_info>
			<input>
				<port id="0" precision="FP16">
					<dim>1</dim>
					<dim>144</dim>
					<dim>1</dim>
					<dim>1</dim>
				</port>
			</input>
			<output>
				<port id="1" precision="FP32">
					<dim>1</dim>
					<dim>144</dim>
					<dim>1</dim>
					<dim>1</dim>
				</port>
			</output>
		</layer>
		<layer id="139" name="Multiply_5451" type="Multiply" version="opset1">
			<data auto_broadcast="numpy"/>
			<rt_info>
				<attribute name="fused_names" version="0" value="525"/>
			</rt_info>
			<input>
				<port id="0" precision="FP32">
					<dim>1</dim>
					<dim>144</dim>
					<dim>128</dim>
					<dim>128</dim>
				</port>
				<port id="1" precision="FP32">
					<dim>1</dim>
					<dim>144</dim>
					<dim>1</dim>
					<dim>1</dim>
				</port>
			</input>
			<output>
				<port id="2" precision="FP32">
					<dim>1</dim>
					<dim>144</dim>
					<dim>128</dim>
					<dim>128</dim>
				</port>
			</output>
		</layer>
		<layer id="140" name="Reshape_5444_compressed" type="Const" version="opset1">
			<data element_type="f16" shape="1, 144, 1, 1" offset="40324" size="288"/>
			<output>
				<port id="0" precision="FP16">
					<dim>1</dim>
					<dim>144</dim>
					<dim>1</dim>
					<dim>1</dim>
				</port>
			</output>
		</layer>
		<layer id="141" name="Reshape_5444" type="Convert" version="opset1">
			<data destination_type="f32"/>
			<rt_info>
				<attribute name="decompression" version="0"/>
			</rt_info>
			<input>
				<port id="0" precision="FP16">
					<dim>1</dim>
					<dim>144</dim>
					<dim>1</dim>
					<dim>1</dim>
				</port>
			</input>
			<output>
				<port id="1" precision="FP32">
					<dim>1</dim>
					<dim>144</dim>
					<dim>1</dim>
					<dim>1</dim>
				</port>
			</output>
		</layer>
		<layer id="142" name="525" type="Add" version="opset1">
			<data auto_broadcast="numpy"/>
			<rt_info>
				<attribute name="fused_names" version="0" value="525"/>
			</rt_info>
			<input>
				<port id="0" precision="FP32">
					<dim>1</dim>
					<dim>144</dim>
					<dim>128</dim>
					<dim>128</dim>
				</port>
				<port id="1" precision="FP32">
					<dim>1</dim>
					<dim>144</dim>
					<dim>1</dim>
					<dim>1</dim>
				</port>
			</input>
			<output>
				<port id="2" precision="FP32" names="525">
					<dim>1</dim>
					<dim>144</dim>
					<dim>128</dim>
					<dim>128</dim>
				</port>
			</output>
		</layer>
		<layer id="143" name="526" type="Clamp" version="opset1">
			<data min="0" max="6"/>
			<rt_info>
				<attribute name="fused_names" version="0" value="526"/>
			</rt_info>
			<input>
				<port id="0" precision="FP32">
					<dim>1</dim>
					<dim>144</dim>
					<dim>128</dim>
					<dim>128</dim>
				</port>
			</input>
			<output>
				<port id="1" precision="FP32" names="526">
					<dim>1</dim>
					<dim>144</dim>
					<dim>128</dim>
					<dim>128</dim>
				</port>
			</output>
		</layer>
		<layer id="144" name="Reshape_638_compressed" type="Const" version="opset1">
			<data element_type="f16" shape="144, 1, 1, 3, 3" offset="40612" size="2592"/>
			<output>
				<port id="0" precision="FP16">
					<dim>144</dim>
					<dim>1</dim>
					<dim>1</dim>
					<dim>3</dim>
					<dim>3</dim>
				</port>
			</output>
		</layer>
		<layer id="145" name="Reshape_638" type="Convert" version="opset1">
			<data destination_type="f32"/>
			<rt_info>
				<attribute name="decompression" version="0"/>
			</rt_info>
			<input>
				<port id="0" precision="FP16">
					<dim>144</dim>
					<dim>1</dim>
					<dim>1</dim>
					<dim>3</dim>
					<dim>3</dim>
				</port>
			</input>
			<output>
				<port id="1" precision="FP32">
					<dim>144</dim>
					<dim>1</dim>
					<dim>1</dim>
					<dim>3</dim>
					<dim>3</dim>
				</port>
			</output>
		</layer>
		<layer id="146" name="527" type="GroupConvolution" version="opset1">
			<data strides="2, 2" pads_begin="1, 1" pads_end="1, 1" dilations="1, 1" auto_pad="explicit"/>
			<rt_info>
				<attribute name="fused_names" version="0" value="527, Reshape_638"/>
			</rt_info>
			<input>
				<port id="0" precision="FP32">
					<dim>1</dim>
					<dim>144</dim>
					<dim>128</dim>
					<dim>128</dim>
				</port>
				<port id="1" precision="FP32">
					<dim>144</dim>
					<dim>1</dim>
					<dim>1</dim>
					<dim>3</dim>
					<dim>3</dim>
				</port>
			</input>
			<output>
				<port id="2" precision="FP32" names="527">
					<dim>1</dim>
					<dim>144</dim>
					<dim>64</dim>
					<dim>64</dim>
				</port>
			</output>
		</layer>
		<layer id="147" name="Reshape_5470_compressed" type="Const" version="opset1">
			<data element_type="f16" shape="1, 144, 1, 1" offset="43204" size="288"/>
			<output>
				<port id="0" precision="FP16">
					<dim>1</dim>
					<dim>144</dim>
					<dim>1</dim>
					<dim>1</dim>
				</port>
			</output>
		</layer>
		<layer id="148" name="Reshape_5470" type="Convert" version="opset1">
			<data destination_type="f32"/>
			<rt_info>
				<attribute name="decompression" version="0"/>
			</rt_info>
			<input>
				<port id="0" precision="FP16">
					<dim>1</dim>
					<dim>144</dim>
					<dim>1</dim>
					<dim>1</dim>
				</port>
			</input>
			<output>
				<port id="1" precision="FP32">
					<dim>1</dim>
					<dim>144</dim>
					<dim>1</dim>
					<dim>1</dim>
				</port>
			</output>
		</layer>
		<layer id="149" name="Subtract_5473" type="Subtract" version="opset1">
			<data auto_broadcast="numpy"/>
			<rt_info>
				<attribute name="fused_names" version="0" value="528"/>
			</rt_info>
			<input>
				<port id="0" precision="FP32">
					<dim>1</dim>
					<dim>144</dim>
					<dim>64</dim>
					<dim>64</dim>
				</port>
				<port id="1" precision="FP32">
					<dim>1</dim>
					<dim>144</dim>
					<dim>1</dim>
					<dim>1</dim>
				</port>
			</input>
			<output>
				<port id="2" precision="FP32">
					<dim>1</dim>
					<dim>144</dim>
					<dim>64</dim>
					<dim>64</dim>
				</port>
			</output>
		</layer>
		<layer id="150" name="Reshape_5464_compressed" type="Const" version="opset1">
			<data element_type="f16" shape="1, 144, 1, 1" offset="43492" size="288"/>
			<output>
				<port id="0" precision="FP16">
					<dim>1</dim>
					<dim>144</dim>
					<dim>1</dim>
					<dim>1</dim>
				</port>
			</output>
		</layer>
		<layer id="151" name="Reshape_5464" type="Convert" version="opset1">
			<data destination_type="f32"/>
			<rt_info>
				<attribute name="decompression" version="0"/>
			</rt_info>
			<input>
				<port id="0" precision="FP16">
					<dim>1</dim>
					<dim>144</dim>
					<dim>1</dim>
					<dim>1</dim>
				</port>
			</input>
			<output>
				<port id="1" precision="FP32">
					<dim>1</dim>
					<dim>144</dim>
					<dim>1</dim>
					<dim>1</dim>
				</port>
			</output>
		</layer>
		<layer id="152" name="Multiply_5474" type="Multiply" version="opset1">
			<data auto_broadcast="numpy"/>
			<rt_info>
				<attribute name="fused_names" version="0" value="528"/>
			</rt_info>
			<input>
				<port id="0" precision="FP32">
					<dim>1</dim>
					<dim>144</dim>
					<dim>64</dim>
					<dim>64</dim>
				</port>
				<port id="1" precision="FP32">
					<dim>1</dim>
					<dim>144</dim>
					<dim>1</dim>
					<dim>1</dim>
				</port>
			</input>
			<output>
				<port id="2" precision="FP32">
					<dim>1</dim>
					<dim>144</dim>
					<dim>64</dim>
					<dim>64</dim>
				</port>
			</output>
		</layer>
		<layer id="153" name="Reshape_5467_compressed" type="Const" version="opset1">
			<data element_type="f16" shape="1, 144, 1, 1" offset="43780" size="288"/>
			<output>
				<port id="0" precision="FP16">
					<dim>1</dim>
					<dim>144</dim>
					<dim>1</dim>
					<dim>1</dim>
				</port>
			</output>
		</layer>
		<layer id="154" name="Reshape_5467" type="Convert" version="opset1">
			<data destination_type="f32"/>
			<rt_info>
				<attribute name="decompression" version="0"/>
			</rt_info>
			<input>
				<port id="0" precision="FP16">
					<dim>1</dim>
					<dim>144</dim>
					<dim>1</dim>
					<dim>1</dim>
				</port>
			</input>
			<output>
				<port id="1" precision="FP32">
					<dim>1</dim>
					<dim>144</dim>
					<dim>1</dim>
					<dim>1</dim>
				</port>
			</output>
		</layer>
		<layer id="155" name="528" type="Add" version="opset1">
			<data auto_broadcast="numpy"/>
			<rt_info>
				<attribute name="fused_names" version="0" value="528"/>
			</rt_info>
			<input>
				<port id="0" precision="FP32">
					<dim>1</dim>
					<dim>144</dim>
					<dim>64</dim>
					<dim>64</dim>
				</port>
				<port id="1" precision="FP32">
					<dim>1</dim>
					<dim>144</dim>
					<dim>1</dim>
					<dim>1</dim>
				</port>
			</input>
			<output>
				<port id="2" precision="FP32" names="528">
					<dim>1</dim>
					<dim>144</dim>
					<dim>64</dim>
					<dim>64</dim>
				</port>
			</output>
		</layer>
		<layer id="156" name="529" type="Clamp" version="opset1">
			<data min="0" max="6"/>
			<rt_info>
				<attribute name="fused_names" version="0" value="529"/>
			</rt_info>
			<input>
				<port id="0" precision="FP32">
					<dim>1</dim>
					<dim>144</dim>
					<dim>64</dim>
					<dim>64</dim>
				</port>
			</input>
			<output>
				<port id="1" precision="FP32" names="529">
					<dim>1</dim>
					<dim>144</dim>
					<dim>64</dim>
					<dim>64</dim>
				</port>
			</output>
		</layer>
		<layer id="157" name="backbone.features.4.conv.6.weight_compressed" type="Const" version="opset1">
			<data element_type="f16" shape="32, 144, 1, 1" offset="44068" size="9216"/>
			<output>
				<port id="0" precision="FP16">
					<dim>32</dim>
					<dim>144</dim>
					<dim>1</dim>
					<dim>1</dim>
				</port>
			</output>
		</layer>
		<layer id="158" name="backbone.features.4.conv.6.weight" type="Convert" version="opset1">
			<data destination_type="f32"/>
			<rt_info>
				<attribute name="decompression" version="0"/>
				<attribute name="fused_names" version="0" value="backbone.features.4.conv.6.weight"/>
			</rt_info>
			<input>
				<port id="0" precision="FP16">
					<dim>32</dim>
					<dim>144</dim>
					<dim>1</dim>
					<dim>1</dim>
				</port>
			</input>
			<output>
				<port id="1" precision="FP32" names="backbone.features.4.conv.6.weight">
					<dim>32</dim>
					<dim>144</dim>
					<dim>1</dim>
					<dim>1</dim>
				</port>
			</output>
		</layer>
		<layer id="159" name="530" type="Convolution" version="opset1">
			<data strides="1, 1" dilations="1, 1" pads_begin="0, 0" pads_end="0, 0" auto_pad="explicit"/>
			<rt_info>
				<attribute name="fused_names" version="0" value="530"/>
			</rt_info>
			<input>
				<port id="0" precision="FP32">
					<dim>1</dim>
					<dim>144</dim>
					<dim>64</dim>
					<dim>64</dim>
				</port>
				<port id="1" precision="FP32">
					<dim>32</dim>
					<dim>144</dim>
					<dim>1</dim>
					<dim>1</dim>
				</port>
			</input>
			<output>
				<port id="2" precision="FP32" names="530">
					<dim>1</dim>
					<dim>32</dim>
					<dim>64</dim>
					<dim>64</dim>
				</port>
			</output>
		</layer>
		<layer id="160" name="Reshape_5493_compressed" type="Const" version="opset1">
			<data element_type="f16" shape="1, 32, 1, 1" offset="53284" size="64"/>
			<output>
				<port id="0" precision="FP16">
					<dim>1</dim>
					<dim>32</dim>
					<dim>1</dim>
					<dim>1</dim>
				</port>
			</output>
		</layer>
		<layer id="161" name="Reshape_5493" type="Convert" version="opset1">
			<data destination_type="f32"/>
			<rt_info>
				<attribute name="decompression" version="0"/>
			</rt_info>
			<input>
				<port id="0" precision="FP16">
					<dim>1</dim>
					<dim>32</dim>
					<dim>1</dim>
					<dim>1</dim>
				</port>
			</input>
			<output>
				<port id="1" precision="FP32">
					<dim>1</dim>
					<dim>32</dim>
					<dim>1</dim>
					<dim>1</dim>
				</port>
			</output>
		</layer>
		<layer id="162" name="Subtract_5496" type="Subtract" version="opset1">
			<data auto_broadcast="numpy"/>
			<rt_info>
				<attribute name="fused_names" version="0" value="531"/>
			</rt_info>
			<input>
				<port id="0" precision="FP32">
					<dim>1</dim>
					<dim>32</dim>
					<dim>64</dim>
					<dim>64</dim>
				</port>
				<port id="1" precision="FP32">
					<dim>1</dim>
					<dim>32</dim>
					<dim>1</dim>
					<dim>1</dim>
				</port>
			</input>
			<output>
				<port id="2" precision="FP32">
					<dim>1</dim>
					<dim>32</dim>
					<dim>64</dim>
					<dim>64</dim>
				</port>
			</output>
		</layer>
		<layer id="163" name="Reshape_5487_compressed" type="Const" version="opset1">
			<data element_type="f16" shape="1, 32, 1, 1" offset="53348" size="64"/>
			<output>
				<port id="0" precision="FP16">
					<dim>1</dim>
					<dim>32</dim>
					<dim>1</dim>
					<dim>1</dim>
				</port>
			</output>
		</layer>
		<layer id="164" name="Reshape_5487" type="Convert" version="opset1">
			<data destination_type="f32"/>
			<rt_info>
				<attribute name="decompression" version="0"/>
			</rt_info>
			<input>
				<port id="0" precision="FP16">
					<dim>1</dim>
					<dim>32</dim>
					<dim>1</dim>
					<dim>1</dim>
				</port>
			</input>
			<output>
				<port id="1" precision="FP32">
					<dim>1</dim>
					<dim>32</dim>
					<dim>1</dim>
					<dim>1</dim>
				</port>
			</output>
		</layer>
		<layer id="165" name="Multiply_5497" type="Multiply" version="opset1">
			<data auto_broadcast="numpy"/>
			<rt_info>
				<attribute name="fused_names" version="0" value="531"/>
			</rt_info>
			<input>
				<port id="0" precision="FP32">
					<dim>1</dim>
					<dim>32</dim>
					<dim>64</dim>
					<dim>64</dim>
				</port>
				<port id="1" precision="FP32">
					<dim>1</dim>
					<dim>32</dim>
					<dim>1</dim>
					<dim>1</dim>
				</port>
			</input>
			<output>
				<port id="2" precision="FP32">
					<dim>1</dim>
					<dim>32</dim>
					<dim>64</dim>
					<dim>64</dim>
				</port>
			</output>
		</layer>
		<layer id="166" name="Reshape_5490_compressed" type="Const" version="opset1">
			<data element_type="f16" shape="1, 32, 1, 1" offset="53412" size="64"/>
			<output>
				<port id="0" precision="FP16">
					<dim>1</dim>
					<dim>32</dim>
					<dim>1</dim>
					<dim>1</dim>
				</port>
			</output>
		</layer>
		<layer id="167" name="Reshape_5490" type="Convert" version="opset1">
			<data destination_type="f32"/>
			<rt_info>
				<attribute name="decompression" version="0"/>
			</rt_info>
			<input>
				<port id="0" precision="FP16">
					<dim>1</dim>
					<dim>32</dim>
					<dim>1</dim>
					<dim>1</dim>
				</port>
			</input>
			<output>
				<port id="1" precision="FP32">
					<dim>1</dim>
					<dim>32</dim>
					<dim>1</dim>
					<dim>1</dim>
				</port>
			</output>
		</layer>
		<layer id="168" name="531" type="Add" version="opset1">
			<data auto_broadcast="numpy"/>
			<rt_info>
				<attribute name="fused_names" version="0" value="531"/>
			</rt_info>
			<input>
				<port id="0" precision="FP32">
					<dim>1</dim>
					<dim>32</dim>
					<dim>64</dim>
					<dim>64</dim>
				</port>
				<port id="1" precision="FP32">
					<dim>1</dim>
					<dim>32</dim>
					<dim>1</dim>
					<dim>1</dim>
				</port>
			</input>
			<output>
				<port id="2" precision="FP32" names="531">
					<dim>1</dim>
					<dim>32</dim>
					<dim>64</dim>
					<dim>64</dim>
				</port>
			</output>
		</layer>
		<layer id="169" name="backbone.features.5.conv.0.weight_compressed" type="Const" version="opset1">
			<data element_type="f16" shape="192, 32, 1, 1" offset="53476" size="12288"/>
			<output>
				<port id="0" precision="FP16">
					<dim>192</dim>
					<dim>32</dim>
					<dim>1</dim>
					<dim>1</dim>
				</port>
			</output>
		</layer>
		<layer id="170" name="backbone.features.5.conv.0.weight" type="Convert" version="opset1">
			<data destination_type="f32"/>
			<rt_info>
				<attribute name="decompression" version="0"/>
				<attribute name="fused_names" version="0" value="backbone.features.5.conv.0.weight"/>
			</rt_info>
			<input>
				<port id="0" precision="FP16">
					<dim>192</dim>
					<dim>32</dim>
					<dim>1</dim>
					<dim>1</dim>
				</port>
			</input>
			<output>
				<port id="1" precision="FP32" names="backbone.features.5.conv.0.weight">
					<dim>192</dim>
					<dim>32</dim>
					<dim>1</dim>
					<dim>1</dim>
				</port>
			</output>
		</layer>
		<layer id="171" name="532" type="Convolution" version="opset1">
			<data strides="1, 1" dilations="1, 1" pads_begin="0, 0" pads_end="0, 0" auto_pad="explicit"/>
			<rt_info>
				<attribute name="fused_names" version="0" value="532"/>
			</rt_info>
			<input>
				<port id="0" precision="FP32">
					<dim>1</dim>
					<dim>32</dim>
					<dim>64</dim>
					<dim>64</dim>
				</port>
				<port id="1" precision="FP32">
					<dim>192</dim>
					<dim>32</dim>
					<dim>1</dim>
					<dim>1</dim>
				</port>
			</input>
			<output>
				<port id="2" precision="FP32" names="532">
					<dim>1</dim>
					<dim>192</dim>
					<dim>64</dim>
					<dim>64</dim>
				</port>
			</output>
		</layer>
		<layer id="172" name="Reshape_5516_compressed" type="Const" version="opset1">
			<data element_type="f16" shape="1, 192, 1, 1" offset="65764" size="384"/>
			<output>
				<port id="0" precision="FP16">
					<dim>1</dim>
					<dim>192</dim>
					<dim>1</dim>
					<dim>1</dim>
				</port>
			</output>
		</layer>
		<layer id="173" name="Reshape_5516" type="Convert" version="opset1">
			<data destination_type="f32"/>
			<rt_info>
				<attribute name="decompression" version="0"/>
			</rt_info>
			<input>
				<port id="0" precision="FP16">
					<dim>1</dim>
					<dim>192</dim>
					<dim>1</dim>
					<dim>1</dim>
				</port>
			</input>
			<output>
				<port id="1" precision="FP32">
					<dim>1</dim>
					<dim>192</dim>
					<dim>1</dim>
					<dim>1</dim>
				</port>
			</output>
		</layer>
		<layer id="174" name="Subtract_5519" type="Subtract" version="opset1">
			<data auto_broadcast="numpy"/>
			<rt_info>
				<attribute name="fused_names" version="0" value="533"/>
			</rt_info>
			<input>
				<port id="0" precision="FP32">
					<dim>1</dim>
					<dim>192</dim>
					<dim>64</dim>
					<dim>64</dim>
				</port>
				<port id="1" precision="FP32">
					<dim>1</dim>
					<dim>192</dim>
					<dim>1</dim>
					<dim>1</dim>
				</port>
			</input>
			<output>
				<port id="2" precision="FP32">
					<dim>1</dim>
					<dim>192</dim>
					<dim>64</dim>
					<dim>64</dim>
				</port>
			</output>
		</layer>
		<layer id="175" name="Reshape_5510_compressed" type="Const" version="opset1">
			<data element_type="f16" shape="1, 192, 1, 1" offset="66148" size="384"/>
			<output>
				<port id="0" precision="FP16">
					<dim>1</dim>
					<dim>192</dim>
					<dim>1</dim>
					<dim>1</dim>
				</port>
			</output>
		</layer>
		<layer id="176" name="Reshape_5510" type="Convert" version="opset1">
			<data destination_type="f32"/>
			<rt_info>
				<attribute name="decompression" version="0"/>
			</rt_info>
			<input>
				<port id="0" precision="FP16">
					<dim>1</dim>
					<dim>192</dim>
					<dim>1</dim>
					<dim>1</dim>
				</port>
			</input>
			<output>
				<port id="1" precision="FP32">
					<dim>1</dim>
					<dim>192</dim>
					<dim>1</dim>
					<dim>1</dim>
				</port>
			</output>
		</layer>
		<layer id="177" name="Multiply_5520" type="Multiply" version="opset1">
			<data auto_broadcast="numpy"/>
			<rt_info>
				<attribute name="fused_names" version="0" value="533"/>
			</rt_info>
			<input>
				<port id="0" precision="FP32">
					<dim>1</dim>
					<dim>192</dim>
					<dim>64</dim>
					<dim>64</dim>
				</port>
				<port id="1" precision="FP32">
					<dim>1</dim>
					<dim>192</dim>
					<dim>1</dim>
					<dim>1</dim>
				</port>
			</input>
			<output>
				<port id="2" precision="FP32">
					<dim>1</dim>
					<dim>192</dim>
					<dim>64</dim>
					<dim>64</dim>
				</port>
			</output>
		</layer>
		<layer id="178" name="Reshape_5513_compressed" type="Const" version="opset1">
			<data element_type="f16" shape="1, 192, 1, 1" offset="66532" size="384"/>
			<output>
				<port id="0" precision="FP16">
					<dim>1</dim>
					<dim>192</dim>
					<dim>1</dim>
					<dim>1</dim>
				</port>
			</output>
		</layer>
		<layer id="179" name="Reshape_5513" type="Convert" version="opset1">
			<data destination_type="f32"/>
			<rt_info>
				<attribute name="decompression" version="0"/>
			</rt_info>
			<input>
				<port id="0" precision="FP16">
					<dim>1</dim>
					<dim>192</dim>
					<dim>1</dim>
					<dim>1</dim>
				</port>
			</input>
			<output>
				<port id="1" precision="FP32">
					<dim>1</dim>
					<dim>192</dim>
					<dim>1</dim>
					<dim>1</dim>
				</port>
			</output>
		</layer>
		<layer id="180" name="533" type="Add" version="opset1">
			<data auto_broadcast="numpy"/>
			<rt_info>
				<attribute name="fused_names" version="0" value="533"/>
			</rt_info>
			<input>
				<port id="0" precision="FP32">
					<dim>1</dim>
					<dim>192</dim>
					<dim>64</dim>
					<dim>64</dim>
				</port>
				<port id="1" precision="FP32">
					<dim>1</dim>
					<dim>192</dim>
					<dim>1</dim>
					<dim>1</dim>
				</port>
			</input>
			<output>
				<port id="2" precision="FP32" names="533">
					<dim>1</dim>
					<dim>192</dim>
					<dim>64</dim>
					<dim>64</dim>
				</port>
			</output>
		</layer>
		<layer id="181" name="534" type="Clamp" version="opset1">
			<data min="0" max="6"/>
			<rt_info>
				<attribute name="fused_names" version="0" value="534"/>
			</rt_info>
			<input>
				<port id="0" precision="FP32">
					<dim>1</dim>
					<dim>192</dim>
					<dim>64</dim>
					<dim>64</dim>
				</port>
			</input>
			<output>
				<port id="1" precision="FP32" names="534">
					<dim>1</dim>
					<dim>192</dim>
					<dim>64</dim>
					<dim>64</dim>
				</port>
			</output>
		</layer>
		<layer id="182" name="Reshape_680_compressed" type="Const" version="opset1">
			<data element_type="f16" shape="192, 1, 1, 3, 3" offset="66916" size="3456"/>
			<output>
				<port id="0" precision="FP16">
					<dim>192</dim>
					<dim>1</dim>
					<dim>1</dim>
					<dim>3</dim>
					<dim>3</dim>
				</port>
			</output>
		</layer>
		<layer id="183" name="Reshape_680" type="Convert" version="opset1">
			<data destination_type="f32"/>
			<rt_info>
				<attribute name="decompression" version="0"/>
			</rt_info>
			<input>
				<port id="0" precision="FP16">
					<dim>192</dim>
					<dim>1</dim>
					<dim>1</dim>
					<dim>3</dim>
					<dim>3</dim>
				</port>
			</input>
			<output>
				<port id="1" precision="FP32">
					<dim>192</dim>
					<dim>1</dim>
					<dim>1</dim>
					<dim>3</dim>
					<dim>3</dim>
				</port>
			</output>
		</layer>
		<layer id="184" name="535" type="GroupConvolution" version="opset1">
			<data strides="1, 1" pads_begin="1, 1" pads_end="1, 1" dilations="1, 1" auto_pad="explicit"/>
			<rt_info>
				<attribute name="fused_names" version="0" value="535, Reshape_680"/>
			</rt_info>
			<input>
				<port id="0" precision="FP32">
					<dim>1</dim>
					<dim>192</dim>
					<dim>64</dim>
					<dim>64</dim>
				</port>
				<port id="1" precision="FP32">
					<dim>192</dim>
					<dim>1</dim>
					<dim>1</dim>
					<dim>3</dim>
					<dim>3</dim>
				</port>
			</input>
			<output>
				<port id="2" precision="FP32" names="535">
					<dim>1</dim>
					<dim>192</dim>
					<dim>64</dim>
					<dim>64</dim>
				</port>
			</output>
		</layer>
		<layer id="185" name="Reshape_5539_compressed" type="Const" version="opset1">
			<data element_type="f16" shape="1, 192, 1, 1" offset="70372" size="384"/>
			<output>
				<port id="0" precision="FP16">
					<dim>1</dim>
					<dim>192</dim>
					<dim>1</dim>
					<dim>1</dim>
				</port>
			</output>
		</layer>
		<layer id="186" name="Reshape_5539" type="Convert" version="opset1">
			<data destination_type="f32"/>
			<rt_info>
				<attribute name="decompression" version="0"/>
			</rt_info>
			<input>
				<port id="0" precision="FP16">
					<dim>1</dim>
					<dim>192</dim>
					<dim>1</dim>
					<dim>1</dim>
				</port>
			</input>
			<output>
				<port id="1" precision="FP32">
					<dim>1</dim>
					<dim>192</dim>
					<dim>1</dim>
					<dim>1</dim>
				</port>
			</output>
		</layer>
		<layer id="187" name="Subtract_5542" type="Subtract" version="opset1">
			<data auto_broadcast="numpy"/>
			<rt_info>
				<attribute name="fused_names" version="0" value="536"/>
			</rt_info>
			<input>
				<port id="0" precision="FP32">
					<dim>1</dim>
					<dim>192</dim>
					<dim>64</dim>
					<dim>64</dim>
				</port>
				<port id="1" precision="FP32">
					<dim>1</dim>
					<dim>192</dim>
					<dim>1</dim>
					<dim>1</dim>
				</port>
			</input>
			<output>
				<port id="2" precision="FP32">
					<dim>1</dim>
					<dim>192</dim>
					<dim>64</dim>
					<dim>64</dim>
				</port>
			</output>
		</layer>
		<layer id="188" name="Reshape_5533_compressed" type="Const" version="opset1">
			<data element_type="f16" shape="1, 192, 1, 1" offset="70756" size="384"/>
			<output>
				<port id="0" precision="FP16">
					<dim>1</dim>
					<dim>192</dim>
					<dim>1</dim>
					<dim>1</dim>
				</port>
			</output>
		</layer>
		<layer id="189" name="Reshape_5533" type="Convert" version="opset1">
			<data destination_type="f32"/>
			<rt_info>
				<attribute name="decompression" version="0"/>
			</rt_info>
			<input>
				<port id="0" precision="FP16">
					<dim>1</dim>
					<dim>192</dim>
					<dim>1</dim>
					<dim>1</dim>
				</port>
			</input>
			<output>
				<port id="1" precision="FP32">
					<dim>1</dim>
					<dim>192</dim>
					<dim>1</dim>
					<dim>1</dim>
				</port>
			</output>
		</layer>
		<layer id="190" name="Multiply_5543" type="Multiply" version="opset1">
			<data auto_broadcast="numpy"/>
			<rt_info>
				<attribute name="fused_names" version="0" value="536"/>
			</rt_info>
			<input>
				<port id="0" precision="FP32">
					<dim>1</dim>
					<dim>192</dim>
					<dim>64</dim>
					<dim>64</dim>
				</port>
				<port id="1" precision="FP32">
					<dim>1</dim>
					<dim>192</dim>
					<dim>1</dim>
					<dim>1</dim>
				</port>
			</input>
			<output>
				<port id="2" precision="FP32">
					<dim>1</dim>
					<dim>192</dim>
					<dim>64</dim>
					<dim>64</dim>
				</port>
			</output>
		</layer>
		<layer id="191" name="Reshape_5536_compressed" type="Const" version="opset1">
			<data element_type="f16" shape="1, 192, 1, 1" offset="71140" size="384"/>
			<output>
				<port id="0" precision="FP16">
					<dim>1</dim>
					<dim>192</dim>
					<dim>1</dim>
					<dim>1</dim>
				</port>
			</output>
		</layer>
		<layer id="192" name="Reshape_5536" type="Convert" version="opset1">
			<data destination_type="f32"/>
			<rt_info>
				<attribute name="decompression" version="0"/>
			</rt_info>
			<input>
				<port id="0" precision="FP16">
					<dim>1</dim>
					<dim>192</dim>
					<dim>1</dim>
					<dim>1</dim>
				</port>
			</input>
			<output>
				<port id="1" precision="FP32">
					<dim>1</dim>
					<dim>192</dim>
					<dim>1</dim>
					<dim>1</dim>
				</port>
			</output>
		</layer>
		<layer id="193" name="536" type="Add" version="opset1">
			<data auto_broadcast="numpy"/>
			<rt_info>
				<attribute name="fused_names" version="0" value="536"/>
			</rt_info>
			<input>
				<port id="0" precision="FP32">
					<dim>1</dim>
					<dim>192</dim>
					<dim>64</dim>
					<dim>64</dim>
				</port>
				<port id="1" precision="FP32">
					<dim>1</dim>
					<dim>192</dim>
					<dim>1</dim>
					<dim>1</dim>
				</port>
			</input>
			<output>
				<port id="2" precision="FP32" names="536">
					<dim>1</dim>
					<dim>192</dim>
					<dim>64</dim>
					<dim>64</dim>
				</port>
			</output>
		</layer>
		<layer id="194" name="537" type="Clamp" version="opset1">
			<data min="0" max="6"/>
			<rt_info>
				<attribute name="fused_names" version="0" value="537"/>
			</rt_info>
			<input>
				<port id="0" precision="FP32">
					<dim>1</dim>
					<dim>192</dim>
					<dim>64</dim>
					<dim>64</dim>
				</port>
			</input>
			<output>
				<port id="1" precision="FP32" names="537">
					<dim>1</dim>
					<dim>192</dim>
					<dim>64</dim>
					<dim>64</dim>
				</port>
			</output>
		</layer>
		<layer id="195" name="backbone.features.5.conv.6.weight_compressed" type="Const" version="opset1">
			<data element_type="f16" shape="32, 192, 1, 1" offset="71524" size="12288"/>
			<output>
				<port id="0" precision="FP16">
					<dim>32</dim>
					<dim>192</dim>
					<dim>1</dim>
					<dim>1</dim>
				</port>
			</output>
		</layer>
		<layer id="196" name="backbone.features.5.conv.6.weight" type="Convert" version="opset1">
			<data destination_type="f32"/>
			<rt_info>
				<attribute name="decompression" version="0"/>
				<attribute name="fused_names" version="0" value="backbone.features.5.conv.6.weight"/>
			</rt_info>
			<input>
				<port id="0" precision="FP16">
					<dim>32</dim>
					<dim>192</dim>
					<dim>1</dim>
					<dim>1</dim>
				</port>
			</input>
			<output>
				<port id="1" precision="FP32" names="backbone.features.5.conv.6.weight">
					<dim>32</dim>
					<dim>192</dim>
					<dim>1</dim>
					<dim>1</dim>
				</port>
			</output>
		</layer>
		<layer id="197" name="538" type="Convolution" version="opset1">
			<data strides="1, 1" dilations="1, 1" pads_begin="0, 0" pads_end="0, 0" auto_pad="explicit"/>
			<rt_info>
				<attribute name="fused_names" version="0" value="538"/>
			</rt_info>
			<input>
				<port id="0" precision="FP32">
					<dim>1</dim>
					<dim>192</dim>
					<dim>64</dim>
					<dim>64</dim>
				</port>
				<port id="1" precision="FP32">
					<dim>32</dim>
					<dim>192</dim>
					<dim>1</dim>
					<dim>1</dim>
				</port>
			</input>
			<output>
				<port id="2" precision="FP32" names="538">
					<dim>1</dim>
					<dim>32</dim>
					<dim>64</dim>
					<dim>64</dim>
				</port>
			</output>
		</layer>
		<layer id="198" name="Reshape_5562_compressed" type="Const" version="opset1">
			<data element_type="f16" shape="1, 32, 1, 1" offset="83812" size="64"/>
			<output>
				<port id="0" precision="FP16">
					<dim>1</dim>
					<dim>32</dim>
					<dim>1</dim>
					<dim>1</dim>
				</port>
			</output>
		</layer>
		<layer id="199" name="Reshape_5562" type="Convert" version="opset1">
			<data destination_type="f32"/>
			<rt_info>
				<attribute name="decompression" version="0"/>
			</rt_info>
			<input>
				<port id="0" precision="FP16">
					<dim>1</dim>
					<dim>32</dim>
					<dim>1</dim>
					<dim>1</dim>
				</port>
			</input>
			<output>
				<port id="1" precision="FP32">
					<dim>1</dim>
					<dim>32</dim>
					<dim>1</dim>
					<dim>1</dim>
				</port>
			</output>
		</layer>
		<layer id="200" name="Subtract_5565" type="Subtract" version="opset1">
			<data auto_broadcast="numpy"/>
			<rt_info>
				<attribute name="fused_names" version="0" value="539"/>
			</rt_info>
			<input>
				<port id="0" precision="FP32">
					<dim>1</dim>
					<dim>32</dim>
					<dim>64</dim>
					<dim>64</dim>
				</port>
				<port id="1" precision="FP32">
					<dim>1</dim>
					<dim>32</dim>
					<dim>1</dim>
					<dim>1</dim>
				</port>
			</input>
			<output>
				<port id="2" precision="FP32">
					<dim>1</dim>
					<dim>32</dim>
					<dim>64</dim>
					<dim>64</dim>
				</port>
			</output>
		</layer>
		<layer id="201" name="Reshape_5556_compressed" type="Const" version="opset1">
			<data element_type="f16" shape="1, 32, 1, 1" offset="83876" size="64"/>
			<output>
				<port id="0" precision="FP16">
					<dim>1</dim>
					<dim>32</dim>
					<dim>1</dim>
					<dim>1</dim>
				</port>
			</output>
		</layer>
		<layer id="202" name="Reshape_5556" type="Convert" version="opset1">
			<data destination_type="f32"/>
			<rt_info>
				<attribute name="decompression" version="0"/>
			</rt_info>
			<input>
				<port id="0" precision="FP16">
					<dim>1</dim>
					<dim>32</dim>
					<dim>1</dim>
					<dim>1</dim>
				</port>
			</input>
			<output>
				<port id="1" precision="FP32">
					<dim>1</dim>
					<dim>32</dim>
					<dim>1</dim>
					<dim>1</dim>
				</port>
			</output>
		</layer>
		<layer id="203" name="Multiply_5566" type="Multiply" version="opset1">
			<data auto_broadcast="numpy"/>
			<rt_info>
				<attribute name="fused_names" version="0" value="539"/>
			</rt_info>
			<input>
				<port id="0" precision="FP32">
					<dim>1</dim>
					<dim>32</dim>
					<dim>64</dim>
					<dim>64</dim>
				</port>
				<port id="1" precision="FP32">
					<dim>1</dim>
					<dim>32</dim>
					<dim>1</dim>
					<dim>1</dim>
				</port>
			</input>
			<output>
				<port id="2" precision="FP32">
					<dim>1</dim>
					<dim>32</dim>
					<dim>64</dim>
					<dim>64</dim>
				</port>
			</output>
		</layer>
		<layer id="204" name="Reshape_5559_compressed" type="Const" version="opset1">
			<data element_type="f16" shape="1, 32, 1, 1" offset="83940" size="64"/>
			<output>
				<port id="0" precision="FP16">
					<dim>1</dim>
					<dim>32</dim>
					<dim>1</dim>
					<dim>1</dim>
				</port>
			</output>
		</layer>
		<layer id="205" name="Reshape_5559" type="Convert" version="opset1">
			<data destination_type="f32"/>
			<rt_info>
				<attribute name="decompression" version="0"/>
			</rt_info>
			<input>
				<port id="0" precision="FP16">
					<dim>1</dim>
					<dim>32</dim>
					<dim>1</dim>
					<dim>1</dim>
				</port>
			</input>
			<output>
				<port id="1" precision="FP32">
					<dim>1</dim>
					<dim>32</dim>
					<dim>1</dim>
					<dim>1</dim>
				</port>
			</output>
		</layer>
		<layer id="206" name="539" type="Add" version="opset1">
			<data auto_broadcast="numpy"/>
			<rt_info>
				<attribute name="fused_names" version="0" value="539"/>
			</rt_info>
			<input>
				<port id="0" precision="FP32">
					<dim>1</dim>
					<dim>32</dim>
					<dim>64</dim>
					<dim>64</dim>
				</port>
				<port id="1" precision="FP32">
					<dim>1</dim>
					<dim>32</dim>
					<dim>1</dim>
					<dim>1</dim>
				</port>
			</input>
			<output>
				<port id="2" precision="FP32" names="539">
					<dim>1</dim>
					<dim>32</dim>
					<dim>64</dim>
					<dim>64</dim>
				</port>
			</output>
		</layer>
		<layer id="207" name="540" type="Add" version="opset1">
			<data auto_broadcast="numpy"/>
			<rt_info>
				<attribute name="fused_names" version="0" value="540"/>
			</rt_info>
			<input>
				<port id="0" precision="FP32">
					<dim>1</dim>
					<dim>32</dim>
					<dim>64</dim>
					<dim>64</dim>
				</port>
				<port id="1" precision="FP32">
					<dim>1</dim>
					<dim>32</dim>
					<dim>64</dim>
					<dim>64</dim>
				</port>
			</input>
			<output>
				<port id="2" precision="FP32" names="540">
					<dim>1</dim>
					<dim>32</dim>
					<dim>64</dim>
					<dim>64</dim>
				</port>
			</output>
		</layer>
		<layer id="208" name="backbone.features.6.conv.0.weight_compressed" type="Const" version="opset1">
			<data element_type="f16" shape="192, 32, 1, 1" offset="84004" size="12288"/>
			<output>
				<port id="0" precision="FP16">
					<dim>192</dim>
					<dim>32</dim>
					<dim>1</dim>
					<dim>1</dim>
				</port>
			</output>
		</layer>
		<layer id="209" name="backbone.features.6.conv.0.weight" type="Convert" version="opset1">
			<data destination_type="f32"/>
			<rt_info>
				<attribute name="decompression" version="0"/>
				<attribute name="fused_names" version="0" value="backbone.features.6.conv.0.weight"/>
			</rt_info>
			<input>
				<port id="0" precision="FP16">
					<dim>192</dim>
					<dim>32</dim>
					<dim>1</dim>
					<dim>1</dim>
				</port>
			</input>
			<output>
				<port id="1" precision="FP32" names="backbone.features.6.conv.0.weight">
					<dim>192</dim>
					<dim>32</dim>
					<dim>1</dim>
					<dim>1</dim>
				</port>
			</output>
		</layer>
		<layer id="210" name="541" type="Convolution" version="opset1">
			<data strides="1, 1" dilations="1, 1" pads_begin="0, 0" pads_end="0, 0" auto_pad="explicit"/>
			<rt_info>
				<attribute name="fused_names" version="0" value="541"/>
			</rt_info>
			<input>
				<port id="0" precision="FP32">
					<dim>1</dim>
					<dim>32</dim>
					<dim>64</dim>
					<dim>64</dim>
				</port>
				<port id="1" precision="FP32">
					<dim>192</dim>
					<dim>32</dim>
					<dim>1</dim>
					<dim>1</dim>
				</port>
			</input>
			<output>
				<port id="2" precision="FP32" names="541">
					<dim>1</dim>
					<dim>192</dim>
					<dim>64</dim>
					<dim>64</dim>
				</port>
			</output>
		</layer>
		<layer id="211" name="Reshape_5585_compressed" type="Const" version="opset1">
			<data element_type="f16" shape="1, 192, 1, 1" offset="96292" size="384"/>
			<output>
				<port id="0" precision="FP16">
					<dim>1</dim>
					<dim>192</dim>
					<dim>1</dim>
					<dim>1</dim>
				</port>
			</output>
		</layer>
		<layer id="212" name="Reshape_5585" type="Convert" version="opset1">
			<data destination_type="f32"/>
			<rt_info>
				<attribute name="decompression" version="0"/>
			</rt_info>
			<input>
				<port id="0" precision="FP16">
					<dim>1</dim>
					<dim>192</dim>
					<dim>1</dim>
					<dim>1</dim>
				</port>
			</input>
			<output>
				<port id="1" precision="FP32">
					<dim>1</dim>
					<dim>192</dim>
					<dim>1</dim>
					<dim>1</dim>
				</port>
			</output>
		</layer>
		<layer id="213" name="Subtract_5588" type="Subtract" version="opset1">
			<data auto_broadcast="numpy"/>
			<rt_info>
				<attribute name="fused_names" version="0" value="542"/>
			</rt_info>
			<input>
				<port id="0" precision="FP32">
					<dim>1</dim>
					<dim>192</dim>
					<dim>64</dim>
					<dim>64</dim>
				</port>
				<port id="1" precision="FP32">
					<dim>1</dim>
					<dim>192</dim>
					<dim>1</dim>
					<dim>1</dim>
				</port>
			</input>
			<output>
				<port id="2" precision="FP32">
					<dim>1</dim>
					<dim>192</dim>
					<dim>64</dim>
					<dim>64</dim>
				</port>
			</output>
		</layer>
		<layer id="214" name="Reshape_5579_compressed" type="Const" version="opset1">
			<data element_type="f16" shape="1, 192, 1, 1" offset="96676" size="384"/>
			<output>
				<port id="0" precision="FP16">
					<dim>1</dim>
					<dim>192</dim>
					<dim>1</dim>
					<dim>1</dim>
				</port>
			</output>
		</layer>
		<layer id="215" name="Reshape_5579" type="Convert" version="opset1">
			<data destination_type="f32"/>
			<rt_info>
				<attribute name="decompression" version="0"/>
			</rt_info>
			<input>
				<port id="0" precision="FP16">
					<dim>1</dim>
					<dim>192</dim>
					<dim>1</dim>
					<dim>1</dim>
				</port>
			</input>
			<output>
				<port id="1" precision="FP32">
					<dim>1</dim>
					<dim>192</dim>
					<dim>1</dim>
					<dim>1</dim>
				</port>
			</output>
		</layer>
		<layer id="216" name="Multiply_5589" type="Multiply" version="opset1">
			<data auto_broadcast="numpy"/>
			<rt_info>
				<attribute name="fused_names" version="0" value="542"/>
			</rt_info>
			<input>
				<port id="0" precision="FP32">
					<dim>1</dim>
					<dim>192</dim>
					<dim>64</dim>
					<dim>64</dim>
				</port>
				<port id="1" precision="FP32">
					<dim>1</dim>
					<dim>192</dim>
					<dim>1</dim>
					<dim>1</dim>
				</port>
			</input>
			<output>
				<port id="2" precision="FP32">
					<dim>1</dim>
					<dim>192</dim>
					<dim>64</dim>
					<dim>64</dim>
				</port>
			</output>
		</layer>
		<layer id="217" name="Reshape_5582_compressed" type="Const" version="opset1">
			<data element_type="f16" shape="1, 192, 1, 1" offset="97060" size="384"/>
			<output>
				<port id="0" precision="FP16">
					<dim>1</dim>
					<dim>192</dim>
					<dim>1</dim>
					<dim>1</dim>
				</port>
			</output>
		</layer>
		<layer id="218" name="Reshape_5582" type="Convert" version="opset1">
			<data destination_type="f32"/>
			<rt_info>
				<attribute name="decompression" version="0"/>
			</rt_info>
			<input>
				<port id="0" precision="FP16">
					<dim>1</dim>
					<dim>192</dim>
					<dim>1</dim>
					<dim>1</dim>
				</port>
			</input>
			<output>
				<port id="1" precision="FP32">
					<dim>1</dim>
					<dim>192</dim>
					<dim>1</dim>
					<dim>1</dim>
				</port>
			</output>
		</layer>
		<layer id="219" name="542" type="Add" version="opset1">
			<data auto_broadcast="numpy"/>
			<rt_info>
				<attribute name="fused_names" version="0" value="542"/>
			</rt_info>
			<input>
				<port id="0" precision="FP32">
					<dim>1</dim>
					<dim>192</dim>
					<dim>64</dim>
					<dim>64</dim>
				</port>
				<port id="1" precision="FP32">
					<dim>1</dim>
					<dim>192</dim>
					<dim>1</dim>
					<dim>1</dim>
				</port>
			</input>
			<output>
				<port id="2" precision="FP32" names="542">
					<dim>1</dim>
					<dim>192</dim>
					<dim>64</dim>
					<dim>64</dim>
				</port>
			</output>
		</layer>
		<layer id="220" name="543" type="Clamp" version="opset1">
			<data min="0" max="6"/>
			<rt_info>
				<attribute name="fused_names" version="0" value="543"/>
			</rt_info>
			<input>
				<port id="0" precision="FP32">
					<dim>1</dim>
					<dim>192</dim>
					<dim>64</dim>
					<dim>64</dim>
				</port>
			</input>
			<output>
				<port id="1" precision="FP32" names="543">
					<dim>1</dim>
					<dim>192</dim>
					<dim>64</dim>
					<dim>64</dim>
				</port>
			</output>
		</layer>
		<layer id="221" name="Reshape_723_compressed" type="Const" version="opset1">
			<data element_type="f16" shape="192, 1, 1, 3, 3" offset="97444" size="3456"/>
			<output>
				<port id="0" precision="FP16">
					<dim>192</dim>
					<dim>1</dim>
					<dim>1</dim>
					<dim>3</dim>
					<dim>3</dim>
				</port>
			</output>
		</layer>
		<layer id="222" name="Reshape_723" type="Convert" version="opset1">
			<data destination_type="f32"/>
			<rt_info>
				<attribute name="decompression" version="0"/>
			</rt_info>
			<input>
				<port id="0" precision="FP16">
					<dim>192</dim>
					<dim>1</dim>
					<dim>1</dim>
					<dim>3</dim>
					<dim>3</dim>
				</port>
			</input>
			<output>
				<port id="1" precision="FP32">
					<dim>192</dim>
					<dim>1</dim>
					<dim>1</dim>
					<dim>3</dim>
					<dim>3</dim>
				</port>
			</output>
		</layer>
		<layer id="223" name="544" type="GroupConvolution" version="opset1">
			<data strides="1, 1" pads_begin="1, 1" pads_end="1, 1" dilations="1, 1" auto_pad="explicit"/>
			<rt_info>
				<attribute name="fused_names" version="0" value="544, Reshape_723"/>
			</rt_info>
			<input>
				<port id="0" precision="FP32">
					<dim>1</dim>
					<dim>192</dim>
					<dim>64</dim>
					<dim>64</dim>
				</port>
				<port id="1" precision="FP32">
					<dim>192</dim>
					<dim>1</dim>
					<dim>1</dim>
					<dim>3</dim>
					<dim>3</dim>
				</port>
			</input>
			<output>
				<port id="2" precision="FP32" names="544">
					<dim>1</dim>
					<dim>192</dim>
					<dim>64</dim>
					<dim>64</dim>
				</port>
			</output>
		</layer>
		<layer id="224" name="Reshape_5608_compressed" type="Const" version="opset1">
			<data element_type="f16" shape="1, 192, 1, 1" offset="100900" size="384"/>
			<output>
				<port id="0" precision="FP16">
					<dim>1</dim>
					<dim>192</dim>
					<dim>1</dim>
					<dim>1</dim>
				</port>
			</output>
		</layer>
		<layer id="225" name="Reshape_5608" type="Convert" version="opset1">
			<data destination_type="f32"/>
			<rt_info>
				<attribute name="decompression" version="0"/>
			</rt_info>
			<input>
				<port id="0" precision="FP16">
					<dim>1</dim>
					<dim>192</dim>
					<dim>1</dim>
					<dim>1</dim>
				</port>
			</input>
			<output>
				<port id="1" precision="FP32">
					<dim>1</dim>
					<dim>192</dim>
					<dim>1</dim>
					<dim>1</dim>
				</port>
			</output>
		</layer>
		<layer id="226" name="Subtract_5611" type="Subtract" version="opset1">
			<data auto_broadcast="numpy"/>
			<rt_info>
				<attribute name="fused_names" version="0" value="545"/>
			</rt_info>
			<input>
				<port id="0" precision="FP32">
					<dim>1</dim>
					<dim>192</dim>
					<dim>64</dim>
					<dim>64</dim>
				</port>
				<port id="1" precision="FP32">
					<dim>1</dim>
					<dim>192</dim>
					<dim>1</dim>
					<dim>1</dim>
				</port>
			</input>
			<output>
				<port id="2" precision="FP32">
					<dim>1</dim>
					<dim>192</dim>
					<dim>64</dim>
					<dim>64</dim>
				</port>
			</output>
		</layer>
		<layer id="227" name="Reshape_5602_compressed" type="Const" version="opset1">
			<data element_type="f16" shape="1, 192, 1, 1" offset="101284" size="384"/>
			<output>
				<port id="0" precision="FP16">
					<dim>1</dim>
					<dim>192</dim>
					<dim>1</dim>
					<dim>1</dim>
				</port>
			</output>
		</layer>
		<layer id="228" name="Reshape_5602" type="Convert" version="opset1">
			<data destination_type="f32"/>
			<rt_info>
				<attribute name="decompression" version="0"/>
			</rt_info>
			<input>
				<port id="0" precision="FP16">
					<dim>1</dim>
					<dim>192</dim>
					<dim>1</dim>
					<dim>1</dim>
				</port>
			</input>
			<output>
				<port id="1" precision="FP32">
					<dim>1</dim>
					<dim>192</dim>
					<dim>1</dim>
					<dim>1</dim>
				</port>
			</output>
		</layer>
		<layer id="229" name="Multiply_5612" type="Multiply" version="opset1">
			<data auto_broadcast="numpy"/>
			<rt_info>
				<attribute name="fused_names" version="0" value="545"/>
			</rt_info>
			<input>
				<port id="0" precision="FP32">
					<dim>1</dim>
					<dim>192</dim>
					<dim>64</dim>
					<dim>64</dim>
				</port>
				<port id="1" precision="FP32">
					<dim>1</dim>
					<dim>192</dim>
					<dim>1</dim>
					<dim>1</dim>
				</port>
			</input>
			<output>
				<port id="2" precision="FP32">
					<dim>1</dim>
					<dim>192</dim>
					<dim>64</dim>
					<dim>64</dim>
				</port>
			</output>
		</layer>
		<layer id="230" name="Reshape_5605_compressed" type="Const" version="opset1">
			<data element_type="f16" shape="1, 192, 1, 1" offset="101668" size="384"/>
			<output>
				<port id="0" precision="FP16">
					<dim>1</dim>
					<dim>192</dim>
					<dim>1</dim>
					<dim>1</dim>
				</port>
			</output>
		</layer>
		<layer id="231" name="Reshape_5605" type="Convert" version="opset1">
			<data destination_type="f32"/>
			<rt_info>
				<attribute name="decompression" version="0"/>
			</rt_info>
			<input>
				<port id="0" precision="FP16">
					<dim>1</dim>
					<dim>192</dim>
					<dim>1</dim>
					<dim>1</dim>
				</port>
			</input>
			<output>
				<port id="1" precision="FP32">
					<dim>1</dim>
					<dim>192</dim>
					<dim>1</dim>
					<dim>1</dim>
				</port>
			</output>
		</layer>
		<layer id="232" name="545" type="Add" version="opset1">
			<data auto_broadcast="numpy"/>
			<rt_info>
				<attribute name="fused_names" version="0" value="545"/>
			</rt_info>
			<input>
				<port id="0" precision="FP32">
					<dim>1</dim>
					<dim>192</dim>
					<dim>64</dim>
					<dim>64</dim>
				</port>
				<port id="1" precision="FP32">
					<dim>1</dim>
					<dim>192</dim>
					<dim>1</dim>
					<dim>1</dim>
				</port>
			</input>
			<output>
				<port id="2" precision="FP32" names="545">
					<dim>1</dim>
					<dim>192</dim>
					<dim>64</dim>
					<dim>64</dim>
				</port>
			</output>
		</layer>
		<layer id="233" name="546" type="Clamp" version="opset1">
			<data min="0" max="6"/>
			<rt_info>
				<attribute name="fused_names" version="0" value="546"/>
			</rt_info>
			<input>
				<port id="0" precision="FP32">
					<dim>1</dim>
					<dim>192</dim>
					<dim>64</dim>
					<dim>64</dim>
				</port>
			</input>
			<output>
				<port id="1" precision="FP32" names="546">
					<dim>1</dim>
					<dim>192</dim>
					<dim>64</dim>
					<dim>64</dim>
				</port>
			</output>
		</layer>
		<layer id="234" name="backbone.features.6.conv.6.weight_compressed" type="Const" version="opset1">
			<data element_type="f16" shape="32, 192, 1, 1" offset="102052" size="12288"/>
			<output>
				<port id="0" precision="FP16">
					<dim>32</dim>
					<dim>192</dim>
					<dim>1</dim>
					<dim>1</dim>
				</port>
			</output>
		</layer>
		<layer id="235" name="backbone.features.6.conv.6.weight" type="Convert" version="opset1">
			<data destination_type="f32"/>
			<rt_info>
				<attribute name="decompression" version="0"/>
				<attribute name="fused_names" version="0" value="backbone.features.6.conv.6.weight"/>
			</rt_info>
			<input>
				<port id="0" precision="FP16">
					<dim>32</dim>
					<dim>192</dim>
					<dim>1</dim>
					<dim>1</dim>
				</port>
			</input>
			<output>
				<port id="1" precision="FP32" names="backbone.features.6.conv.6.weight">
					<dim>32</dim>
					<dim>192</dim>
					<dim>1</dim>
					<dim>1</dim>
				</port>
			</output>
		</layer>
		<layer id="236" name="547" type="Convolution" version="opset1">
			<data strides="1, 1" dilations="1, 1" pads_begin="0, 0" pads_end="0, 0" auto_pad="explicit"/>
			<rt_info>
				<attribute name="fused_names" version="0" value="547"/>
			</rt_info>
			<input>
				<port id="0" precision="FP32">
					<dim>1</dim>
					<dim>192</dim>
					<dim>64</dim>
					<dim>64</dim>
				</port>
				<port id="1" precision="FP32">
					<dim>32</dim>
					<dim>192</dim>
					<dim>1</dim>
					<dim>1</dim>
				</port>
			</input>
			<output>
				<port id="2" precision="FP32" names="547">
					<dim>1</dim>
					<dim>32</dim>
					<dim>64</dim>
					<dim>64</dim>
				</port>
			</output>
		</layer>
		<layer id="237" name="Reshape_5631_compressed" type="Const" version="opset1">
			<data element_type="f16" shape="1, 32, 1, 1" offset="114340" size="64"/>
			<output>
				<port id="0" precision="FP16">
					<dim>1</dim>
					<dim>32</dim>
					<dim>1</dim>
					<dim>1</dim>
				</port>
			</output>
		</layer>
		<layer id="238" name="Reshape_5631" type="Convert" version="opset1">
			<data destination_type="f32"/>
			<rt_info>
				<attribute name="decompression" version="0"/>
			</rt_info>
			<input>
				<port id="0" precision="FP16">
					<dim>1</dim>
					<dim>32</dim>
					<dim>1</dim>
					<dim>1</dim>
				</port>
			</input>
			<output>
				<port id="1" precision="FP32">
					<dim>1</dim>
					<dim>32</dim>
					<dim>1</dim>
					<dim>1</dim>
				</port>
			</output>
		</layer>
		<layer id="239" name="Subtract_5634" type="Subtract" version="opset1">
			<data auto_broadcast="numpy"/>
			<rt_info>
				<attribute name="fused_names" version="0" value="548"/>
			</rt_info>
			<input>
				<port id="0" precision="FP32">
					<dim>1</dim>
					<dim>32</dim>
					<dim>64</dim>
					<dim>64</dim>
				</port>
				<port id="1" precision="FP32">
					<dim>1</dim>
					<dim>32</dim>
					<dim>1</dim>
					<dim>1</dim>
				</port>
			</input>
			<output>
				<port id="2" precision="FP32">
					<dim>1</dim>
					<dim>32</dim>
					<dim>64</dim>
					<dim>64</dim>
				</port>
			</output>
		</layer>
		<layer id="240" name="Reshape_5625_compressed" type="Const" version="opset1">
			<data element_type="f16" shape="1, 32, 1, 1" offset="114404" size="64"/>
			<output>
				<port id="0" precision="FP16">
					<dim>1</dim>
					<dim>32</dim>
					<dim>1</dim>
					<dim>1</dim>
				</port>
			</output>
		</layer>
		<layer id="241" name="Reshape_5625" type="Convert" version="opset1">
			<data destination_type="f32"/>
			<rt_info>
				<attribute name="decompression" version="0"/>
			</rt_info>
			<input>
				<port id="0" precision="FP16">
					<dim>1</dim>
					<dim>32</dim>
					<dim>1</dim>
					<dim>1</dim>
				</port>
			</input>
			<output>
				<port id="1" precision="FP32">
					<dim>1</dim>
					<dim>32</dim>
					<dim>1</dim>
					<dim>1</dim>
				</port>
			</output>
		</layer>
		<layer id="242" name="Multiply_5635" type="Multiply" version="opset1">
			<data auto_broadcast="numpy"/>
			<rt_info>
				<attribute name="fused_names" version="0" value="548"/>
			</rt_info>
			<input>
				<port id="0" precision="FP32">
					<dim>1</dim>
					<dim>32</dim>
					<dim>64</dim>
					<dim>64</dim>
				</port>
				<port id="1" precision="FP32">
					<dim>1</dim>
					<dim>32</dim>
					<dim>1</dim>
					<dim>1</dim>
				</port>
			</input>
			<output>
				<port id="2" precision="FP32">
					<dim>1</dim>
					<dim>32</dim>
					<dim>64</dim>
					<dim>64</dim>
				</port>
			</output>
		</layer>
		<layer id="243" name="Reshape_5628_compressed" type="Const" version="opset1">
			<data element_type="f16" shape="1, 32, 1, 1" offset="114468" size="64"/>
			<output>
				<port id="0" precision="FP16">
					<dim>1</dim>
					<dim>32</dim>
					<dim>1</dim>
					<dim>1</dim>
				</port>
			</output>
		</layer>
		<layer id="244" name="Reshape_5628" type="Convert" version="opset1">
			<data destination_type="f32"/>
			<rt_info>
				<attribute name="decompression" version="0"/>
			</rt_info>
			<input>
				<port id="0" precision="FP16">
					<dim>1</dim>
					<dim>32</dim>
					<dim>1</dim>
					<dim>1</dim>
				</port>
			</input>
			<output>
				<port id="1" precision="FP32">
					<dim>1</dim>
					<dim>32</dim>
					<dim>1</dim>
					<dim>1</dim>
				</port>
			</output>
		</layer>
		<layer id="245" name="548" type="Add" version="opset1">
			<data auto_broadcast="numpy"/>
			<rt_info>
				<attribute name="fused_names" version="0" value="548"/>
			</rt_info>
			<input>
				<port id="0" precision="FP32">
					<dim>1</dim>
					<dim>32</dim>
					<dim>64</dim>
					<dim>64</dim>
				</port>
				<port id="1" precision="FP32">
					<dim>1</dim>
					<dim>32</dim>
					<dim>1</dim>
					<dim>1</dim>
				</port>
			</input>
			<output>
				<port id="2" precision="FP32" names="548">
					<dim>1</dim>
					<dim>32</dim>
					<dim>64</dim>
					<dim>64</dim>
				</port>
			</output>
		</layer>
		<layer id="246" name="549" type="Add" version="opset1">
			<data auto_broadcast="numpy"/>
			<rt_info>
				<attribute name="fused_names" version="0" value="549"/>
			</rt_info>
			<input>
				<port id="0" precision="FP32">
					<dim>1</dim>
					<dim>32</dim>
					<dim>64</dim>
					<dim>64</dim>
				</port>
				<port id="1" precision="FP32">
					<dim>1</dim>
					<dim>32</dim>
					<dim>64</dim>
					<dim>64</dim>
				</port>
			</input>
			<output>
				<port id="2" precision="FP32" names="549">
					<dim>1</dim>
					<dim>32</dim>
					<dim>64</dim>
					<dim>64</dim>
				</port>
			</output>
		</layer>
		<layer id="247" name="backbone.features.7.conv.0.weight_compressed" type="Const" version="opset1">
			<data element_type="f16" shape="192, 32, 1, 1" offset="114532" size="12288"/>
			<output>
				<port id="0" precision="FP16">
					<dim>192</dim>
					<dim>32</dim>
					<dim>1</dim>
					<dim>1</dim>
				</port>
			</output>
		</layer>
		<layer id="248" name="backbone.features.7.conv.0.weight" type="Convert" version="opset1">
			<data destination_type="f32"/>
			<rt_info>
				<attribute name="decompression" version="0"/>
				<attribute name="fused_names" version="0" value="backbone.features.7.conv.0.weight"/>
			</rt_info>
			<input>
				<port id="0" precision="FP16">
					<dim>192</dim>
					<dim>32</dim>
					<dim>1</dim>
					<dim>1</dim>
				</port>
			</input>
			<output>
				<port id="1" precision="FP32" names="backbone.features.7.conv.0.weight">
					<dim>192</dim>
					<dim>32</dim>
					<dim>1</dim>
					<dim>1</dim>
				</port>
			</output>
		</layer>
		<layer id="249" name="550" type="Convolution" version="opset1">
			<data strides="1, 1" dilations="1, 1" pads_begin="0, 0" pads_end="0, 0" auto_pad="explicit"/>
			<rt_info>
				<attribute name="fused_names" version="0" value="550"/>
			</rt_info>
			<input>
				<port id="0" precision="FP32">
					<dim>1</dim>
					<dim>32</dim>
					<dim>64</dim>
					<dim>64</dim>
				</port>
				<port id="1" precision="FP32">
					<dim>192</dim>
					<dim>32</dim>
					<dim>1</dim>
					<dim>1</dim>
				</port>
			</input>
			<output>
				<port id="2" precision="FP32" names="550">
					<dim>1</dim>
					<dim>192</dim>
					<dim>64</dim>
					<dim>64</dim>
				</port>
			</output>
		</layer>
		<layer id="250" name="Reshape_5654_compressed" type="Const" version="opset1">
			<data element_type="f16" shape="1, 192, 1, 1" offset="126820" size="384"/>
			<output>
				<port id="0" precision="FP16">
					<dim>1</dim>
					<dim>192</dim>
					<dim>1</dim>
					<dim>1</dim>
				</port>
			</output>
		</layer>
		<layer id="251" name="Reshape_5654" type="Convert" version="opset1">
			<data destination_type="f32"/>
			<rt_info>
				<attribute name="decompression" version="0"/>
			</rt_info>
			<input>
				<port id="0" precision="FP16">
					<dim>1</dim>
					<dim>192</dim>
					<dim>1</dim>
					<dim>1</dim>
				</port>
			</input>
			<output>
				<port id="1" precision="FP32">
					<dim>1</dim>
					<dim>192</dim>
					<dim>1</dim>
					<dim>1</dim>
				</port>
			</output>
		</layer>
		<layer id="252" name="Subtract_5657" type="Subtract" version="opset1">
			<data auto_broadcast="numpy"/>
			<rt_info>
				<attribute name="fused_names" version="0" value="551"/>
			</rt_info>
			<input>
				<port id="0" precision="FP32">
					<dim>1</dim>
					<dim>192</dim>
					<dim>64</dim>
					<dim>64</dim>
				</port>
				<port id="1" precision="FP32">
					<dim>1</dim>
					<dim>192</dim>
					<dim>1</dim>
					<dim>1</dim>
				</port>
			</input>
			<output>
				<port id="2" precision="FP32">
					<dim>1</dim>
					<dim>192</dim>
					<dim>64</dim>
					<dim>64</dim>
				</port>
			</output>
		</layer>
		<layer id="253" name="Reshape_5648_compressed" type="Const" version="opset1">
			<data element_type="f16" shape="1, 192, 1, 1" offset="127204" size="384"/>
			<output>
				<port id="0" precision="FP16">
					<dim>1</dim>
					<dim>192</dim>
					<dim>1</dim>
					<dim>1</dim>
				</port>
			</output>
		</layer>
		<layer id="254" name="Reshape_5648" type="Convert" version="opset1">
			<data destination_type="f32"/>
			<rt_info>
				<attribute name="decompression" version="0"/>
			</rt_info>
			<input>
				<port id="0" precision="FP16">
					<dim>1</dim>
					<dim>192</dim>
					<dim>1</dim>
					<dim>1</dim>
				</port>
			</input>
			<output>
				<port id="1" precision="FP32">
					<dim>1</dim>
					<dim>192</dim>
					<dim>1</dim>
					<dim>1</dim>
				</port>
			</output>
		</layer>
		<layer id="255" name="Multiply_5658" type="Multiply" version="opset1">
			<data auto_broadcast="numpy"/>
			<rt_info>
				<attribute name="fused_names" version="0" value="551"/>
			</rt_info>
			<input>
				<port id="0" precision="FP32">
					<dim>1</dim>
					<dim>192</dim>
					<dim>64</dim>
					<dim>64</dim>
				</port>
				<port id="1" precision="FP32">
					<dim>1</dim>
					<dim>192</dim>
					<dim>1</dim>
					<dim>1</dim>
				</port>
			</input>
			<output>
				<port id="2" precision="FP32">
					<dim>1</dim>
					<dim>192</dim>
					<dim>64</dim>
					<dim>64</dim>
				</port>
			</output>
		</layer>
		<layer id="256" name="Reshape_5651_compressed" type="Const" version="opset1">
			<data element_type="f16" shape="1, 192, 1, 1" offset="127588" size="384"/>
			<output>
				<port id="0" precision="FP16">
					<dim>1</dim>
					<dim>192</dim>
					<dim>1</dim>
					<dim>1</dim>
				</port>
			</output>
		</layer>
		<layer id="257" name="Reshape_5651" type="Convert" version="opset1">
			<data destination_type="f32"/>
			<rt_info>
				<attribute name="decompression" version="0"/>
			</rt_info>
			<input>
				<port id="0" precision="FP16">
					<dim>1</dim>
					<dim>192</dim>
					<dim>1</dim>
					<dim>1</dim>
				</port>
			</input>
			<output>
				<port id="1" precision="FP32">
					<dim>1</dim>
					<dim>192</dim>
					<dim>1</dim>
					<dim>1</dim>
				</port>
			</output>
		</layer>
		<layer id="258" name="551" type="Add" version="opset1">
			<data auto_broadcast="numpy"/>
			<rt_info>
				<attribute name="fused_names" version="0" value="551"/>
			</rt_info>
			<input>
				<port id="0" precision="FP32">
					<dim>1</dim>
					<dim>192</dim>
					<dim>64</dim>
					<dim>64</dim>
				</port>
				<port id="1" precision="FP32">
					<dim>1</dim>
					<dim>192</dim>
					<dim>1</dim>
					<dim>1</dim>
				</port>
			</input>
			<output>
				<port id="2" precision="FP32" names="551">
					<dim>1</dim>
					<dim>192</dim>
					<dim>64</dim>
					<dim>64</dim>
				</port>
			</output>
		</layer>
		<layer id="259" name="552" type="Clamp" version="opset1">
			<data min="0" max="6"/>
			<rt_info>
				<attribute name="fused_names" version="0" value="552"/>
			</rt_info>
			<input>
				<port id="0" precision="FP32">
					<dim>1</dim>
					<dim>192</dim>
					<dim>64</dim>
					<dim>64</dim>
				</port>
			</input>
			<output>
				<port id="1" precision="FP32" names="552">
					<dim>1</dim>
					<dim>192</dim>
					<dim>64</dim>
					<dim>64</dim>
				</port>
			</output>
		</layer>
		<layer id="260" name="Reshape_766_compressed" type="Const" version="opset1">
			<data element_type="f16" shape="192, 1, 1, 3, 3" offset="127972" size="3456"/>
			<output>
				<port id="0" precision="FP16">
					<dim>192</dim>
					<dim>1</dim>
					<dim>1</dim>
					<dim>3</dim>
					<dim>3</dim>
				</port>
			</output>
		</layer>
		<layer id="261" name="Reshape_766" type="Convert" version="opset1">
			<data destination_type="f32"/>
			<rt_info>
				<attribute name="decompression" version="0"/>
			</rt_info>
			<input>
				<port id="0" precision="FP16">
					<dim>192</dim>
					<dim>1</dim>
					<dim>1</dim>
					<dim>3</dim>
					<dim>3</dim>
				</port>
			</input>
			<output>
				<port id="1" precision="FP32">
					<dim>192</dim>
					<dim>1</dim>
					<dim>1</dim>
					<dim>3</dim>
					<dim>3</dim>
				</port>
			</output>
		</layer>
		<layer id="262" name="553" type="GroupConvolution" version="opset1">
			<data strides="2, 2" pads_begin="1, 1" pads_end="1, 1" dilations="1, 1" auto_pad="explicit"/>
			<rt_info>
				<attribute name="fused_names" version="0" value="553, Reshape_766"/>
			</rt_info>
			<input>
				<port id="0" precision="FP32">
					<dim>1</dim>
					<dim>192</dim>
					<dim>64</dim>
					<dim>64</dim>
				</port>
				<port id="1" precision="FP32">
					<dim>192</dim>
					<dim>1</dim>
					<dim>1</dim>
					<dim>3</dim>
					<dim>3</dim>
				</port>
			</input>
			<output>
				<port id="2" precision="FP32" names="553">
					<dim>1</dim>
					<dim>192</dim>
					<dim>32</dim>
					<dim>32</dim>
				</port>
			</output>
		</layer>
		<layer id="263" name="Reshape_5677_compressed" type="Const" version="opset1">
			<data element_type="f16" shape="1, 192, 1, 1" offset="131428" size="384"/>
			<output>
				<port id="0" precision="FP16">
					<dim>1</dim>
					<dim>192</dim>
					<dim>1</dim>
					<dim>1</dim>
				</port>
			</output>
		</layer>
		<layer id="264" name="Reshape_5677" type="Convert" version="opset1">
			<data destination_type="f32"/>
			<rt_info>
				<attribute name="decompression" version="0"/>
			</rt_info>
			<input>
				<port id="0" precision="FP16">
					<dim>1</dim>
					<dim>192</dim>
					<dim>1</dim>
					<dim>1</dim>
				</port>
			</input>
			<output>
				<port id="1" precision="FP32">
					<dim>1</dim>
					<dim>192</dim>
					<dim>1</dim>
					<dim>1</dim>
				</port>
			</output>
		</layer>
		<layer id="265" name="Subtract_5680" type="Subtract" version="opset1">
			<data auto_broadcast="numpy"/>
			<rt_info>
				<attribute name="fused_names" version="0" value="554"/>
			</rt_info>
			<input>
				<port id="0" precision="FP32">
					<dim>1</dim>
					<dim>192</dim>
					<dim>32</dim>
					<dim>32</dim>
				</port>
				<port id="1" precision="FP32">
					<dim>1</dim>
					<dim>192</dim>
					<dim>1</dim>
					<dim>1</dim>
				</port>
			</input>
			<output>
				<port id="2" precision="FP32">
					<dim>1</dim>
					<dim>192</dim>
					<dim>32</dim>
					<dim>32</dim>
				</port>
			</output>
		</layer>
		<layer id="266" name="Reshape_5671_compressed" type="Const" version="opset1">
			<data element_type="f16" shape="1, 192, 1, 1" offset="131812" size="384"/>
			<output>
				<port id="0" precision="FP16">
					<dim>1</dim>
					<dim>192</dim>
					<dim>1</dim>
					<dim>1</dim>
				</port>
			</output>
		</layer>
		<layer id="267" name="Reshape_5671" type="Convert" version="opset1">
			<data destination_type="f32"/>
			<rt_info>
				<attribute name="decompression" version="0"/>
			</rt_info>
			<input>
				<port id="0" precision="FP16">
					<dim>1</dim>
					<dim>192</dim>
					<dim>1</dim>
					<dim>1</dim>
				</port>
			</input>
			<output>
				<port id="1" precision="FP32">
					<dim>1</dim>
					<dim>192</dim>
					<dim>1</dim>
					<dim>1</dim>
				</port>
			</output>
		</layer>
		<layer id="268" name="Multiply_5681" type="Multiply" version="opset1">
			<data auto_broadcast="numpy"/>
			<rt_info>
				<attribute name="fused_names" version="0" value="554"/>
			</rt_info>
			<input>
				<port id="0" precision="FP32">
					<dim>1</dim>
					<dim>192</dim>
					<dim>32</dim>
					<dim>32</dim>
				</port>
				<port id="1" precision="FP32">
					<dim>1</dim>
					<dim>192</dim>
					<dim>1</dim>
					<dim>1</dim>
				</port>
			</input>
			<output>
				<port id="2" precision="FP32">
					<dim>1</dim>
					<dim>192</dim>
					<dim>32</dim>
					<dim>32</dim>
				</port>
			</output>
		</layer>
		<layer id="269" name="Reshape_5674_compressed" type="Const" version="opset1">
			<data element_type="f16" shape="1, 192, 1, 1" offset="132196" size="384"/>
			<output>
				<port id="0" precision="FP16">
					<dim>1</dim>
					<dim>192</dim>
					<dim>1</dim>
					<dim>1</dim>
				</port>
			</output>
		</layer>
		<layer id="270" name="Reshape_5674" type="Convert" version="opset1">
			<data destination_type="f32"/>
			<rt_info>
				<attribute name="decompression" version="0"/>
			</rt_info>
			<input>
				<port id="0" precision="FP16">
					<dim>1</dim>
					<dim>192</dim>
					<dim>1</dim>
					<dim>1</dim>
				</port>
			</input>
			<output>
				<port id="1" precision="FP32">
					<dim>1</dim>
					<dim>192</dim>
					<dim>1</dim>
					<dim>1</dim>
				</port>
			</output>
		</layer>
		<layer id="271" name="554" type="Add" version="opset1">
			<data auto_broadcast="numpy"/>
			<rt_info>
				<attribute name="fused_names" version="0" value="554"/>
			</rt_info>
			<input>
				<port id="0" precision="FP32">
					<dim>1</dim>
					<dim>192</dim>
					<dim>32</dim>
					<dim>32</dim>
				</port>
				<port id="1" precision="FP32">
					<dim>1</dim>
					<dim>192</dim>
					<dim>1</dim>
					<dim>1</dim>
				</port>
			</input>
			<output>
				<port id="2" precision="FP32" names="554">
					<dim>1</dim>
					<dim>192</dim>
					<dim>32</dim>
					<dim>32</dim>
				</port>
			</output>
		</layer>
		<layer id="272" name="555" type="Clamp" version="opset1">
			<data min="0" max="6"/>
			<rt_info>
				<attribute name="fused_names" version="0" value="555"/>
			</rt_info>
			<input>
				<port id="0" precision="FP32">
					<dim>1</dim>
					<dim>192</dim>
					<dim>32</dim>
					<dim>32</dim>
				</port>
			</input>
			<output>
				<port id="1" precision="FP32" names="555">
					<dim>1</dim>
					<dim>192</dim>
					<dim>32</dim>
					<dim>32</dim>
				</port>
			</output>
		</layer>
		<layer id="273" name="backbone.features.7.conv.6.weight_compressed" type="Const" version="opset1">
			<data element_type="f16" shape="64, 192, 1, 1" offset="132580" size="24576"/>
			<output>
				<port id="0" precision="FP16">
					<dim>64</dim>
					<dim>192</dim>
					<dim>1</dim>
					<dim>1</dim>
				</port>
			</output>
		</layer>
		<layer id="274" name="backbone.features.7.conv.6.weight" type="Convert" version="opset1">
			<data destination_type="f32"/>
			<rt_info>
				<attribute name="decompression" version="0"/>
				<attribute name="fused_names" version="0" value="backbone.features.7.conv.6.weight"/>
			</rt_info>
			<input>
				<port id="0" precision="FP16">
					<dim>64</dim>
					<dim>192</dim>
					<dim>1</dim>
					<dim>1</dim>
				</port>
			</input>
			<output>
				<port id="1" precision="FP32" names="backbone.features.7.conv.6.weight">
					<dim>64</dim>
					<dim>192</dim>
					<dim>1</dim>
					<dim>1</dim>
				</port>
			</output>
		</layer>
		<layer id="275" name="556" type="Convolution" version="opset1">
			<data strides="1, 1" dilations="1, 1" pads_begin="0, 0" pads_end="0, 0" auto_pad="explicit"/>
			<rt_info>
				<attribute name="fused_names" version="0" value="556"/>
			</rt_info>
			<input>
				<port id="0" precision="FP32">
					<dim>1</dim>
					<dim>192</dim>
					<dim>32</dim>
					<dim>32</dim>
				</port>
				<port id="1" precision="FP32">
					<dim>64</dim>
					<dim>192</dim>
					<dim>1</dim>
					<dim>1</dim>
				</port>
			</input>
			<output>
				<port id="2" precision="FP32" names="556">
					<dim>1</dim>
					<dim>64</dim>
					<dim>32</dim>
					<dim>32</dim>
				</port>
			</output>
		</layer>
		<layer id="276" name="Reshape_5700_compressed" type="Const" version="opset1">
			<data element_type="f16" shape="1, 64, 1, 1" offset="157156" size="128"/>
			<output>
				<port id="0" precision="FP16">
					<dim>1</dim>
					<dim>64</dim>
					<dim>1</dim>
					<dim>1</dim>
				</port>
			</output>
		</layer>
		<layer id="277" name="Reshape_5700" type="Convert" version="opset1">
			<data destination_type="f32"/>
			<rt_info>
				<attribute name="decompression" version="0"/>
			</rt_info>
			<input>
				<port id="0" precision="FP16">
					<dim>1</dim>
					<dim>64</dim>
					<dim>1</dim>
					<dim>1</dim>
				</port>
			</input>
			<output>
				<port id="1" precision="FP32">
					<dim>1</dim>
					<dim>64</dim>
					<dim>1</dim>
					<dim>1</dim>
				</port>
			</output>
		</layer>
		<layer id="278" name="Subtract_5703" type="Subtract" version="opset1">
			<data auto_broadcast="numpy"/>
			<rt_info>
				<attribute name="fused_names" version="0" value="557"/>
			</rt_info>
			<input>
				<port id="0" precision="FP32">
					<dim>1</dim>
					<dim>64</dim>
					<dim>32</dim>
					<dim>32</dim>
				</port>
				<port id="1" precision="FP32">
					<dim>1</dim>
					<dim>64</dim>
					<dim>1</dim>
					<dim>1</dim>
				</port>
			</input>
			<output>
				<port id="2" precision="FP32">
					<dim>1</dim>
					<dim>64</dim>
					<dim>32</dim>
					<dim>32</dim>
				</port>
			</output>
		</layer>
		<layer id="279" name="Reshape_5694_compressed" type="Const" version="opset1">
			<data element_type="f16" shape="1, 64, 1, 1" offset="157284" size="128"/>
			<output>
				<port id="0" precision="FP16">
					<dim>1</dim>
					<dim>64</dim>
					<dim>1</dim>
					<dim>1</dim>
				</port>
			</output>
		</layer>
		<layer id="280" name="Reshape_5694" type="Convert" version="opset1">
			<data destination_type="f32"/>
			<rt_info>
				<attribute name="decompression" version="0"/>
			</rt_info>
			<input>
				<port id="0" precision="FP16">
					<dim>1</dim>
					<dim>64</dim>
					<dim>1</dim>
					<dim>1</dim>
				</port>
			</input>
			<output>
				<port id="1" precision="FP32">
					<dim>1</dim>
					<dim>64</dim>
					<dim>1</dim>
					<dim>1</dim>
				</port>
			</output>
		</layer>
		<layer id="281" name="Multiply_5704" type="Multiply" version="opset1">
			<data auto_broadcast="numpy"/>
			<rt_info>
				<attribute name="fused_names" version="0" value="557"/>
			</rt_info>
			<input>
				<port id="0" precision="FP32">
					<dim>1</dim>
					<dim>64</dim>
					<dim>32</dim>
					<dim>32</dim>
				</port>
				<port id="1" precision="FP32">
					<dim>1</dim>
					<dim>64</dim>
					<dim>1</dim>
					<dim>1</dim>
				</port>
			</input>
			<output>
				<port id="2" precision="FP32">
					<dim>1</dim>
					<dim>64</dim>
					<dim>32</dim>
					<dim>32</dim>
				</port>
			</output>
		</layer>
		<layer id="282" name="Reshape_5697_compressed" type="Const" version="opset1">
			<data element_type="f16" shape="1, 64, 1, 1" offset="157412" size="128"/>
			<output>
				<port id="0" precision="FP16">
					<dim>1</dim>
					<dim>64</dim>
					<dim>1</dim>
					<dim>1</dim>
				</port>
			</output>
		</layer>
		<layer id="283" name="Reshape_5697" type="Convert" version="opset1">
			<data destination_type="f32"/>
			<rt_info>
				<attribute name="decompression" version="0"/>
			</rt_info>
			<input>
				<port id="0" precision="FP16">
					<dim>1</dim>
					<dim>64</dim>
					<dim>1</dim>
					<dim>1</dim>
				</port>
			</input>
			<output>
				<port id="1" precision="FP32">
					<dim>1</dim>
					<dim>64</dim>
					<dim>1</dim>
					<dim>1</dim>
				</port>
			</output>
		</layer>
		<layer id="284" name="557" type="Add" version="opset1">
			<data auto_broadcast="numpy"/>
			<rt_info>
				<attribute name="fused_names" version="0" value="557"/>
			</rt_info>
			<input>
				<port id="0" precision="FP32">
					<dim>1</dim>
					<dim>64</dim>
					<dim>32</dim>
					<dim>32</dim>
				</port>
				<port id="1" precision="FP32">
					<dim>1</dim>
					<dim>64</dim>
					<dim>1</dim>
					<dim>1</dim>
				</port>
			</input>
			<output>
				<port id="2" precision="FP32" names="557">
					<dim>1</dim>
					<dim>64</dim>
					<dim>32</dim>
					<dim>32</dim>
				</port>
			</output>
		</layer>
		<layer id="285" name="backbone.features.8.conv.0.weight_compressed" type="Const" version="opset1">
			<data element_type="f16" shape="384, 64, 1, 1" offset="157540" size="49152"/>
			<output>
				<port id="0" precision="FP16">
					<dim>384</dim>
					<dim>64</dim>
					<dim>1</dim>
					<dim>1</dim>
				</port>
			</output>
		</layer>
		<layer id="286" name="backbone.features.8.conv.0.weight" type="Convert" version="opset1">
			<data destination_type="f32"/>
			<rt_info>
				<attribute name="decompression" version="0"/>
				<attribute name="fused_names" version="0" value="backbone.features.8.conv.0.weight"/>
			</rt_info>
			<input>
				<port id="0" precision="FP16">
					<dim>384</dim>
					<dim>64</dim>
					<dim>1</dim>
					<dim>1</dim>
				</port>
			</input>
			<output>
				<port id="1" precision="FP32" names="backbone.features.8.conv.0.weight">
					<dim>384</dim>
					<dim>64</dim>
					<dim>1</dim>
					<dim>1</dim>
				</port>
			</output>
		</layer>
		<layer id="287" name="558" type="Convolution" version="opset1">
			<data strides="1, 1" dilations="1, 1" pads_begin="0, 0" pads_end="0, 0" auto_pad="explicit"/>
			<rt_info>
				<attribute name="fused_names" version="0" value="558"/>
			</rt_info>
			<input>
				<port id="0" precision="FP32">
					<dim>1</dim>
					<dim>64</dim>
					<dim>32</dim>
					<dim>32</dim>
				</port>
				<port id="1" precision="FP32">
					<dim>384</dim>
					<dim>64</dim>
					<dim>1</dim>
					<dim>1</dim>
				</port>
			</input>
			<output>
				<port id="2" precision="FP32" names="558">
					<dim>1</dim>
					<dim>384</dim>
					<dim>32</dim>
					<dim>32</dim>
				</port>
			</output>
		</layer>
		<layer id="288" name="Reshape_5723_compressed" type="Const" version="opset1">
			<data element_type="f16" shape="1, 384, 1, 1" offset="206692" size="768"/>
			<output>
				<port id="0" precision="FP16">
					<dim>1</dim>
					<dim>384</dim>
					<dim>1</dim>
					<dim>1</dim>
				</port>
			</output>
		</layer>
		<layer id="289" name="Reshape_5723" type="Convert" version="opset1">
			<data destination_type="f32"/>
			<rt_info>
				<attribute name="decompression" version="0"/>
			</rt_info>
			<input>
				<port id="0" precision="FP16">
					<dim>1</dim>
					<dim>384</dim>
					<dim>1</dim>
					<dim>1</dim>
				</port>
			</input>
			<output>
				<port id="1" precision="FP32">
					<dim>1</dim>
					<dim>384</dim>
					<dim>1</dim>
					<dim>1</dim>
				</port>
			</output>
		</layer>
		<layer id="290" name="Subtract_5726" type="Subtract" version="opset1">
			<data auto_broadcast="numpy"/>
			<rt_info>
				<attribute name="fused_names" version="0" value="559"/>
			</rt_info>
			<input>
				<port id="0" precision="FP32">
					<dim>1</dim>
					<dim>384</dim>
					<dim>32</dim>
					<dim>32</dim>
				</port>
				<port id="1" precision="FP32">
					<dim>1</dim>
					<dim>384</dim>
					<dim>1</dim>
					<dim>1</dim>
				</port>
			</input>
			<output>
				<port id="2" precision="FP32">
					<dim>1</dim>
					<dim>384</dim>
					<dim>32</dim>
					<dim>32</dim>
				</port>
			</output>
		</layer>
		<layer id="291" name="Reshape_5717_compressed" type="Const" version="opset1">
			<data element_type="f16" shape="1, 384, 1, 1" offset="207460" size="768"/>
			<output>
				<port id="0" precision="FP16">
					<dim>1</dim>
					<dim>384</dim>
					<dim>1</dim>
					<dim>1</dim>
				</port>
			</output>
		</layer>
		<layer id="292" name="Reshape_5717" type="Convert" version="opset1">
			<data destination_type="f32"/>
			<rt_info>
				<attribute name="decompression" version="0"/>
			</rt_info>
			<input>
				<port id="0" precision="FP16">
					<dim>1</dim>
					<dim>384</dim>
					<dim>1</dim>
					<dim>1</dim>
				</port>
			</input>
			<output>
				<port id="1" precision="FP32">
					<dim>1</dim>
					<dim>384</dim>
					<dim>1</dim>
					<dim>1</dim>
				</port>
			</output>
		</layer>
		<layer id="293" name="Multiply_5727" type="Multiply" version="opset1">
			<data auto_broadcast="numpy"/>
			<rt_info>
				<attribute name="fused_names" version="0" value="559"/>
			</rt_info>
			<input>
				<port id="0" precision="FP32">
					<dim>1</dim>
					<dim>384</dim>
					<dim>32</dim>
					<dim>32</dim>
				</port>
				<port id="1" precision="FP32">
					<dim>1</dim>
					<dim>384</dim>
					<dim>1</dim>
					<dim>1</dim>
				</port>
			</input>
			<output>
				<port id="2" precision="FP32">
					<dim>1</dim>
					<dim>384</dim>
					<dim>32</dim>
					<dim>32</dim>
				</port>
			</output>
		</layer>
		<layer id="294" name="Reshape_5720_compressed" type="Const" version="opset1">
			<data element_type="f16" shape="1, 384, 1, 1" offset="208228" size="768"/>
			<output>
				<port id="0" precision="FP16">
					<dim>1</dim>
					<dim>384</dim>
					<dim>1</dim>
					<dim>1</dim>
				</port>
			</output>
		</layer>
		<layer id="295" name="Reshape_5720" type="Convert" version="opset1">
			<data destination_type="f32"/>
			<rt_info>
				<attribute name="decompression" version="0"/>
			</rt_info>
			<input>
				<port id="0" precision="FP16">
					<dim>1</dim>
					<dim>384</dim>
					<dim>1</dim>
					<dim>1</dim>
				</port>
			</input>
			<output>
				<port id="1" precision="FP32">
					<dim>1</dim>
					<dim>384</dim>
					<dim>1</dim>
					<dim>1</dim>
				</port>
			</output>
		</layer>
		<layer id="296" name="559" type="Add" version="opset1">
			<data auto_broadcast="numpy"/>
			<rt_info>
				<attribute name="fused_names" version="0" value="559"/>
			</rt_info>
			<input>
				<port id="0" precision="FP32">
					<dim>1</dim>
					<dim>384</dim>
					<dim>32</dim>
					<dim>32</dim>
				</port>
				<port id="1" precision="FP32">
					<dim>1</dim>
					<dim>384</dim>
					<dim>1</dim>
					<dim>1</dim>
				</port>
			</input>
			<output>
				<port id="2" precision="FP32" names="559">
					<dim>1</dim>
					<dim>384</dim>
					<dim>32</dim>
					<dim>32</dim>
				</port>
			</output>
		</layer>
		<layer id="297" name="560" type="Clamp" version="opset1">
			<data min="0" max="6"/>
			<rt_info>
				<attribute name="fused_names" version="0" value="560"/>
			</rt_info>
			<input>
				<port id="0" precision="FP32">
					<dim>1</dim>
					<dim>384</dim>
					<dim>32</dim>
					<dim>32</dim>
				</port>
			</input>
			<output>
				<port id="1" precision="FP32" names="560">
					<dim>1</dim>
					<dim>384</dim>
					<dim>32</dim>
					<dim>32</dim>
				</port>
			</output>
		</layer>
		<layer id="298" name="Reshape_808_compressed" type="Const" version="opset1">
			<data element_type="f16" shape="384, 1, 1, 3, 3" offset="208996" size="6912"/>
			<output>
				<port id="0" precision="FP16">
					<dim>384</dim>
					<dim>1</dim>
					<dim>1</dim>
					<dim>3</dim>
					<dim>3</dim>
				</port>
			</output>
		</layer>
		<layer id="299" name="Reshape_808" type="Convert" version="opset1">
			<data destination_type="f32"/>
			<rt_info>
				<attribute name="decompression" version="0"/>
			</rt_info>
			<input>
				<port id="0" precision="FP16">
					<dim>384</dim>
					<dim>1</dim>
					<dim>1</dim>
					<dim>3</dim>
					<dim>3</dim>
				</port>
			</input>
			<output>
				<port id="1" precision="FP32">
					<dim>384</dim>
					<dim>1</dim>
					<dim>1</dim>
					<dim>3</dim>
					<dim>3</dim>
				</port>
			</output>
		</layer>
		<layer id="300" name="561" type="GroupConvolution" version="opset1">
			<data strides="1, 1" pads_begin="1, 1" pads_end="1, 1" dilations="1, 1" auto_pad="explicit"/>
			<rt_info>
				<attribute name="fused_names" version="0" value="561, Reshape_808"/>
			</rt_info>
			<input>
				<port id="0" precision="FP32">
					<dim>1</dim>
					<dim>384</dim>
					<dim>32</dim>
					<dim>32</dim>
				</port>
				<port id="1" precision="FP32">
					<dim>384</dim>
					<dim>1</dim>
					<dim>1</dim>
					<dim>3</dim>
					<dim>3</dim>
				</port>
			</input>
			<output>
				<port id="2" precision="FP32" names="561">
					<dim>1</dim>
					<dim>384</dim>
					<dim>32</dim>
					<dim>32</dim>
				</port>
			</output>
		</layer>
		<layer id="301" name="Reshape_5746_compressed" type="Const" version="opset1">
			<data element_type="f16" shape="1, 384, 1, 1" offset="215908" size="768"/>
			<output>
				<port id="0" precision="FP16">
					<dim>1</dim>
					<dim>384</dim>
					<dim>1</dim>
					<dim>1</dim>
				</port>
			</output>
		</layer>
		<layer id="302" name="Reshape_5746" type="Convert" version="opset1">
			<data destination_type="f32"/>
			<rt_info>
				<attribute name="decompression" version="0"/>
			</rt_info>
			<input>
				<port id="0" precision="FP16">
					<dim>1</dim>
					<dim>384</dim>
					<dim>1</dim>
					<dim>1</dim>
				</port>
			</input>
			<output>
				<port id="1" precision="FP32">
					<dim>1</dim>
					<dim>384</dim>
					<dim>1</dim>
					<dim>1</dim>
				</port>
			</output>
		</layer>
		<layer id="303" name="Subtract_5749" type="Subtract" version="opset1">
			<data auto_broadcast="numpy"/>
			<rt_info>
				<attribute name="fused_names" version="0" value="562"/>
			</rt_info>
			<input>
				<port id="0" precision="FP32">
					<dim>1</dim>
					<dim>384</dim>
					<dim>32</dim>
					<dim>32</dim>
				</port>
				<port id="1" precision="FP32">
					<dim>1</dim>
					<dim>384</dim>
					<dim>1</dim>
					<dim>1</dim>
				</port>
			</input>
			<output>
				<port id="2" precision="FP32">
					<dim>1</dim>
					<dim>384</dim>
					<dim>32</dim>
					<dim>32</dim>
				</port>
			</output>
		</layer>
		<layer id="304" name="Reshape_5740_compressed" type="Const" version="opset1">
			<data element_type="f16" shape="1, 384, 1, 1" offset="216676" size="768"/>
			<output>
				<port id="0" precision="FP16">
					<dim>1</dim>
					<dim>384</dim>
					<dim>1</dim>
					<dim>1</dim>
				</port>
			</output>
		</layer>
		<layer id="305" name="Reshape_5740" type="Convert" version="opset1">
			<data destination_type="f32"/>
			<rt_info>
				<attribute name="decompression" version="0"/>
			</rt_info>
			<input>
				<port id="0" precision="FP16">
					<dim>1</dim>
					<dim>384</dim>
					<dim>1</dim>
					<dim>1</dim>
				</port>
			</input>
			<output>
				<port id="1" precision="FP32">
					<dim>1</dim>
					<dim>384</dim>
					<dim>1</dim>
					<dim>1</dim>
				</port>
			</output>
		</layer>
		<layer id="306" name="Multiply_5750" type="Multiply" version="opset1">
			<data auto_broadcast="numpy"/>
			<rt_info>
				<attribute name="fused_names" version="0" value="562"/>
			</rt_info>
			<input>
				<port id="0" precision="FP32">
					<dim>1</dim>
					<dim>384</dim>
					<dim>32</dim>
					<dim>32</dim>
				</port>
				<port id="1" precision="FP32">
					<dim>1</dim>
					<dim>384</dim>
					<dim>1</dim>
					<dim>1</dim>
				</port>
			</input>
			<output>
…
		<edge from-layer="648" from-port="0" to-layer="649" to-port="0"/>
		<edge from-layer="649" from-port="1" to-layer="650" to-port="1"/>
		<edge from-layer="650" from-port="2" to-layer="651" to-port="0"/>
		<edge from-layer="651" from-port="1" to-layer="654" to-port="0"/>
		<edge from-layer="652" from-port="0" to-layer="653" to-port="0"/>
		<edge from-layer="653" from-port="1" to-layer="654" to-port="1"/>
		<edge from-layer="654" from-port="2" to-layer="657" to-port="0"/>
		<edge from-layer="655" from-port="0" to-layer="656" to-port="0"/>
		<edge from-layer="656" from-port="1" to-layer="657" to-port="1"/>
		<edge from-layer="657" from-port="2" to-layer="660" to-port="0"/>
		<edge from-layer="658" from-port="0" to-layer="659" to-port="0"/>
		<edge from-layer="659" from-port="1" to-layer="660" to-port="1"/>
		<edge from-layer="660" from-port="2" to-layer="663" to-port="0"/>
		<edge from-layer="661" from-port="0" to-layer="662" to-port="0"/>
		<edge from-layer="662" from-port="1" to-layer="663" to-port="1"/>
		<edge from-layer="663" from-port="2" to-layer="664" to-port="1"/>
		<edge from-layer="664" from-port="2" to-layer="667" to-port="0"/>
		<edge from-layer="665" from-port="0" to-layer="666" to-port="0"/>
		<edge from-layer="666" from-port="1" to-layer="667" to-port="1"/>
		<edge from-layer="667" from-port="2" to-layer="670" to-port="0"/>
		<edge from-layer="668" from-port="0" to-layer="669" to-port="0"/>
		<edge from-layer="669" from-port="1" to-layer="670" to-port="1"/>
		<edge from-layer="670" from-port="2" to-layer="673" to-port="0"/>
		<edge from-layer="671" from-port="0" to-layer="672" to-port="0"/>
		<edge from-layer="672" from-port="1" to-layer="673" to-port="1"/>
		<edge from-layer="673" from-port="2" to-layer="676" to-port="0"/>
		<edge from-layer="674" from-port="0" to-layer="675" to-port="0"/>
		<edge from-layer="675" from-port="1" to-layer="676" to-port="1"/>
		<edge from-layer="676" from-port="2" to-layer="677" to-port="0"/>
		<edge from-layer="677" from-port="1" to-layer="680" to-port="0"/>
		<edge from-layer="678" from-port="0" to-layer="679" to-port="0"/>
		<edge from-layer="679" from-port="1" to-layer="680" to-port="1"/>
		<edge from-layer="680" from-port="2" to-layer="683" to-port="0"/>
		<edge from-layer="681" from-port="0" to-layer="682" to-port="0"/>
		<edge from-layer="682" from-port="1" to-layer="683" to-port="1"/>
		<edge from-layer="683" from-port="2" to-layer="686" to-port="0"/>
		<edge from-layer="684" from-port="0" to-layer="685" to-port="0"/>
		<edge from-layer="685" from-port="1" to-layer="686" to-port="1"/>
		<edge from-layer="686" from-port="2" to-layer="689" to-port="0"/>
		<edge from-layer="687" from-port="0" to-layer="688" to-port="0"/>
		<edge from-layer="688" from-port="1" to-layer="689" to-port="1"/>
		<edge from-layer="689" from-port="2" to-layer="690" to-port="0"/>
		<edge from-layer="690" from-port="1" to-layer="693" to-port="0"/>
		<edge from-layer="691" from-port="0" to-layer="692" to-port="0"/>
		<edge from-layer="692" from-port="1" to-layer="693" to-port="1"/>
		<edge from-layer="693" from-port="2" to-layer="696" to-port="0"/>
		<edge from-layer="694" from-port="0" to-layer="695" to-port="0"/>
		<edge from-layer="695" from-port="1" to-layer="696" to-port="1"/>
		<edge from-layer="696" from-port="2" to-layer="699" to-port="0"/>
		<edge from-layer="697" from-port="0" to-layer="698" to-port="0"/>
		<edge from-layer="698" from-port="1" to-layer="699" to-port="1"/>
		<edge from-layer="699" from-port="2" to-layer="702" to-port="0"/>
		<edge from-layer="700" from-port="0" to-layer="701" to-port="0"/>
		<edge from-layer="701" from-port="1" to-layer="702" to-port="1"/>
		<edge from-layer="702" from-port="2" to-layer="705" to-port="0"/>
		<edge from-layer="703" from-port="0" to-layer="704" to-port="0"/>
		<edge from-layer="704" from-port="1" to-layer="705" to-port="1"/>
		<edge from-layer="705" from-port="2" to-layer="708" to-port="0"/>
		<edge from-layer="706" from-port="0" to-layer="707" to-port="0"/>
		<edge from-layer="707" from-port="1" to-layer="708" to-port="1"/>
		<edge from-layer="708" from-port="2" to-layer="711" to-port="0"/>
		<edge from-layer="709" from-port="0" to-layer="710" to-port="0"/>
		<edge from-layer="710" from-port="1" to-layer="711" to-port="1"/>
		<edge from-layer="711" from-port="2" to-layer="714" to-port="0"/>
		<edge from-layer="712" from-port="0" to-layer="713" to-port="0"/>
		<edge from-layer="713" from-port="1" to-layer="714" to-port="1"/>
		<edge from-layer="714" from-port="2" to-layer="715" to-port="0"/>
		<edge from-layer="715" from-port="1" to-layer="1244" to-port="0"/>
		<edge from-layer="715" from-port="1" to-layer="1061" to-port="0"/>
		<edge from-layer="715" from-port="1" to-layer="749" to-port="0"/>
		<edge from-layer="715" from-port="1" to-layer="718" to-port="0"/>
		<edge from-layer="716" from-port="0" to-layer="717" to-port="0"/>
		<edge from-layer="717" from-port="1" to-layer="718" to-port="1"/>
		<edge from-layer="718" from-port="2" to-layer="721" to-port="0"/>
		<edge from-layer="719" from-port="0" to-layer="720" to-port="0"/>
		<edge from-layer="720" from-port="1" to-layer="721" to-port="1"/>
		<edge from-layer="721" from-port="2" to-layer="724" to-port="0"/>
		<edge from-layer="722" from-port="0" to-layer="723" to-port="0"/>
		<edge from-layer="723" from-port="1" to-layer="724" to-port="1"/>
		<edge from-layer="724" from-port="2" to-layer="727" to-port="0"/>
		<edge from-layer="725" from-port="0" to-layer="726" to-port="0"/>
		<edge from-layer="726" from-port="1" to-layer="727" to-port="1"/>
		<edge from-layer="727" from-port="2" to-layer="730" to-port="0"/>
		<edge from-layer="728" from-port="0" to-layer="729" to-port="0"/>
		<edge from-layer="729" from-port="1" to-layer="730" to-port="1"/>
		<edge from-layer="730" from-port="2" to-layer="731" to-port="0"/>
		<edge from-layer="731" from-port="1" to-layer="734" to-port="0"/>
		<edge from-layer="732" from-port="0" to-layer="733" to-port="0"/>
		<edge from-layer="733" from-port="1" to-layer="734" to-port="1"/>
		<edge from-layer="734" from-port="2" to-layer="737" to-port="0"/>
		<edge from-layer="735" from-port="0" to-layer="736" to-port="0"/>
		<edge from-layer="736" from-port="1" to-layer="737" to-port="1"/>
		<edge from-layer="737" from-port="2" to-layer="740" to-port="0"/>
		<edge from-layer="737" from-port="2" to-layer="739" to-port="0"/>
		<edge from-layer="738" from-port="0" to-layer="739" to-port="1"/>
		<edge from-layer="739" from-port="2" to-layer="746" to-port="0"/>
		<edge from-layer="740" from-port="1" to-layer="743" to-port="0"/>
		<edge from-layer="741" from-port="0" to-layer="743" to-port="1"/>
		<edge from-layer="742" from-port="0" to-layer="743" to-port="2"/>
		<edge from-layer="743" from-port="3" to-layer="745" to-port="0"/>
		<edge from-layer="744" from-port="0" to-layer="745" to-port="1"/>
		<edge from-layer="745" from-port="2" to-layer="746" to-port="1"/>
		<edge from-layer="746" from-port="2" to-layer="1027" to-port="1"/>
		<edge from-layer="747" from-port="0" to-layer="748" to-port="0"/>
		<edge from-layer="748" from-port="1" to-layer="749" to-port="1"/>
		<edge from-layer="749" from-port="2" to-layer="752" to-port="0"/>
		<edge from-layer="750" from-port="0" to-layer="751" to-port="0"/>
		<edge from-layer="751" from-port="1" to-layer="752" to-port="1"/>
		<edge from-layer="752" from-port="2" to-layer="755" to-port="0"/>
		<edge from-layer="753" from-port="0" to-layer="754" to-port="0"/>
		<edge from-layer="754" from-port="1" to-layer="755" to-port="1"/>
		<edge from-layer="755" from-port="2" to-layer="758" to-port="0"/>
		<edge from-layer="756" from-port="0" to-layer="757" to-port="0"/>
		<edge from-layer="757" from-port="1" to-layer="758" to-port="1"/>
		<edge from-layer="758" from-port="2" to-layer="759" to-port="0"/>
		<edge from-layer="759" from-port="1" to-layer="762" to-port="0"/>
		<edge from-layer="760" from-port="0" to-layer="761" to-port="0"/>
		<edge from-layer="761" from-port="1" to-layer="762" to-port="1"/>
		<edge from-layer="762" from-port="2" to-layer="765" to-port="0"/>
		<edge from-layer="763" from-port="0" to-layer="764" to-port="0"/>
		<edge from-layer="764" from-port="1" to-layer="765" to-port="1"/>
		<edge from-layer="765" from-port="2" to-layer="768" to-port="0"/>
		<edge from-layer="766" from-port="0" to-layer="767" to-port="0"/>
		<edge from-layer="767" from-port="1" to-layer="768" to-port="1"/>
		<edge from-layer="768" from-port="2" to-layer="771" to-port="0"/>
		<edge from-layer="769" from-port="0" to-layer="770" to-port="0"/>
		<edge from-layer="770" from-port="1" to-layer="771" to-port="1"/>
		<edge from-layer="771" from-port="2" to-layer="772" to-port="0"/>
		<edge from-layer="772" from-port="1" to-layer="775" to-port="0"/>
		<edge from-layer="773" from-port="0" to-layer="774" to-port="0"/>
		<edge from-layer="774" from-port="1" to-layer="775" to-port="1"/>
		<edge from-layer="775" from-port="2" to-layer="778" to-port="0"/>
		<edge from-layer="776" from-port="0" to-layer="777" to-port="0"/>
		<edge from-layer="777" from-port="1" to-layer="778" to-port="1"/>
		<edge from-layer="778" from-port="2" to-layer="781" to-port="0"/>
		<edge from-layer="779" from-port="0" to-layer="780" to-port="0"/>
		<edge from-layer="780" from-port="1" to-layer="781" to-port="1"/>
		<edge from-layer="781" from-port="2" to-layer="784" to-port="0"/>
		<edge from-layer="782" from-port="0" to-layer="783" to-port="0"/>
		<edge from-layer="783" from-port="1" to-layer="784" to-port="1"/>
		<edge from-layer="784" from-port="2" to-layer="785" to-port="0"/>
		<edge from-layer="785" from-port="1" to-layer="1256" to-port="0"/>
		<edge from-layer="785" from-port="1" to-layer="788" to-port="0"/>
		<edge from-layer="785" from-port="1" to-layer="819" to-port="0"/>
		<edge from-layer="785" from-port="1" to-layer="1092" to-port="0"/>
		<edge from-layer="786" from-port="0" to-layer="787" to-port="0"/>
		<edge from-layer="787" from-port="1" to-layer="788" to-port="1"/>
		<edge from-layer="788" from-port="2" to-layer="791" to-port="0"/>
		<edge from-layer="789" from-port="0" to-layer="790" to-port="0"/>
		<edge from-layer="790" from-port="1" to-layer="791" to-port="1"/>
		<edge from-layer="791" from-port="2" to-layer="794" to-port="0"/>
		<edge from-layer="792" from-port="0" to-layer="793" to-port="0"/>
		<edge from-layer="793" from-port="1" to-layer="794" to-port="1"/>
		<edge from-layer="794" from-port="2" to-layer="797" to-port="0"/>
		<edge from-layer="795" from-port="0" to-layer="796" to-port="0"/>
		<edge from-layer="796" from-port="1" to-layer="797" to-port="1"/>
		<edge from-layer="797" from-port="2" to-layer="800" to-port="0"/>
		<edge from-layer="798" from-port="0" to-layer="799" to-port="0"/>
		<edge from-layer="799" from-port="1" to-layer="800" to-port="1"/>
		<edge from-layer="800" from-port="2" to-layer="801" to-port="0"/>
		<edge from-layer="801" from-port="1" to-layer="804" to-port="0"/>
		<edge from-layer="802" from-port="0" to-layer="803" to-port="0"/>
		<edge from-layer="803" from-port="1" to-layer="804" to-port="1"/>
		<edge from-layer="804" from-port="2" to-layer="807" to-port="0"/>
		<edge from-layer="805" from-port="0" to-layer="806" to-port="0"/>
		<edge from-layer="806" from-port="1" to-layer="807" to-port="1"/>
		<edge from-layer="807" from-port="2" to-layer="810" to-port="0"/>
		<edge from-layer="807" from-port="2" to-layer="809" to-port="0"/>
		<edge from-layer="808" from-port="0" to-layer="809" to-port="1"/>
		<edge from-layer="809" from-port="2" to-layer="816" to-port="0"/>
		<edge from-layer="810" from-port="1" to-layer="813" to-port="0"/>
		<edge from-layer="811" from-port="0" to-layer="813" to-port="1"/>
		<edge from-layer="812" from-port="0" to-layer="813" to-port="2"/>
		<edge from-layer="813" from-port="3" to-layer="815" to-port="0"/>
		<edge from-layer="814" from-port="0" to-layer="815" to-port="1"/>
		<edge from-layer="815" from-port="2" to-layer="816" to-port="1"/>
		<edge from-layer="816" from-port="2" to-layer="1027" to-port="2"/>
		<edge from-layer="817" from-port="0" to-layer="818" to-port="0"/>
		<edge from-layer="818" from-port="1" to-layer="819" to-port="1"/>
		<edge from-layer="819" from-port="2" to-layer="822" to-port="0"/>
		<edge from-layer="820" from-port="0" to-layer="821" to-port="0"/>
		<edge from-layer="821" from-port="1" to-layer="822" to-port="1"/>
		<edge from-layer="822" from-port="2" to-layer="825" to-port="0"/>
		<edge from-layer="823" from-port="0" to-layer="824" to-port="0"/>
		<edge from-layer="824" from-port="1" to-layer="825" to-port="1"/>
		<edge from-layer="825" from-port="2" to-layer="828" to-port="0"/>
		<edge from-layer="826" from-port="0" to-layer="827" to-port="0"/>
		<edge from-layer="827" from-port="1" to-layer="828" to-port="1"/>
		<edge from-layer="828" from-port="2" to-layer="829" to-port="0"/>
		<edge from-layer="829" from-port="1" to-layer="832" to-port="0"/>
		<edge from-layer="830" from-port="0" to-layer="831" to-port="0"/>
		<edge from-layer="831" from-port="1" to-layer="832" to-port="1"/>
		<edge from-layer="832" from-port="2" to-layer="835" to-port="0"/>
		<edge from-layer="833" from-port="0" to-layer="834" to-port="0"/>
		<edge from-layer="834" from-port="1" to-layer="835" to-port="1"/>
		<edge from-layer="835" from-port="2" to-layer="838" to-port="0"/>
		<edge from-layer="836" from-port="0" to-layer="837" to-port="0"/>
		<edge from-layer="837" from-port="1" to-layer="838" to-port="1"/>
		<edge from-layer="838" from-port="2" to-layer="841" to-port="0"/>
		<edge from-layer="839" from-port="0" to-layer="840" to-port="0"/>
		<edge from-layer="840" from-port="1" to-layer="841" to-port="1"/>
		<edge from-layer="841" from-port="2" to-layer="842" to-port="0"/>
		<edge from-layer="842" from-port="1" to-layer="845" to-port="0"/>
		<edge from-layer="843" from-port="0" to-layer="844" to-port="0"/>
		<edge from-layer="844" from-port="1" to-layer="845" to-port="1"/>
		<edge from-layer="845" from-port="2" to-layer="848" to-port="0"/>
		<edge from-layer="846" from-port="0" to-layer="847" to-port="0"/>
		<edge from-layer="847" from-port="1" to-layer="848" to-port="1"/>
		<edge from-layer="848" from-port="2" to-layer="851" to-port="0"/>
		<edge from-layer="849" from-port="0" to-layer="850" to-port="0"/>
		<edge from-layer="850" from-port="1" to-layer="851" to-port="1"/>
		<edge from-layer="851" from-port="2" to-layer="854" to-port="0"/>
		<edge from-layer="852" from-port="0" to-layer="853" to-port="0"/>
		<edge from-layer="853" from-port="1" to-layer="854" to-port="1"/>
		<edge from-layer="854" from-port="2" to-layer="855" to-port="0"/>
		<edge from-layer="855" from-port="1" to-layer="1123" to-port="0"/>
		<edge from-layer="855" from-port="1" to-layer="858" to-port="0"/>
		<edge from-layer="855" from-port="1" to-layer="1268" to-port="0"/>
		<edge from-layer="855" from-port="1" to-layer="889" to-port="0"/>
		<edge from-layer="856" from-port="0" to-layer="857" to-port="0"/>
		<edge from-layer="857" from-port="1" to-layer="858" to-port="1"/>
		<edge from-layer="858" from-port="2" to-layer="861" to-port="0"/>
		<edge from-layer="859" from-port="0" to-layer="860" to-port="0"/>
		<edge from-layer="860" from-port="1" to-layer="861" to-port="1"/>
		<edge from-layer="861" from-port="2" to-layer="864" to-port="0"/>
		<edge from-layer="862" from-port="0" to-layer="863" to-port="0"/>
		<edge from-layer="863" from-port="1" to-layer="864" to-port="1"/>
		<edge from-layer="864" from-port="2" to-layer="867" to-port="0"/>
		<edge from-layer="865" from-port="0" to-layer="866" to-port="0"/>
		<edge from-layer="866" from-port="1" to-layer="867" to-port="1"/>
		<edge from-layer="867" from-port="2" to-layer="870" to-port="0"/>
		<edge from-layer="868" from-port="0" to-layer="869" to-port="0"/>
		<edge from-layer="869" from-port="1" to-layer="870" to-port="1"/>
		<edge from-layer="870" from-port="2" to-layer="871" to-port="0"/>
		<edge from-layer="871" from-port="1" to-layer="874" to-port="0"/>
		<edge from-layer="872" from-port="0" to-layer="873" to-port="0"/>
		<edge from-layer="873" from-port="1" to-layer="874" to-port="1"/>
		<edge from-layer="874" from-port="2" to-layer="877" to-port="0"/>
		<edge from-layer="875" from-port="0" to-layer="876" to-port="0"/>
		<edge from-layer="876" from-port="1" to-layer="877" to-port="1"/>
		<edge from-layer="877" from-port="2" to-layer="879" to-port="0"/>
		<edge from-layer="877" from-port="2" to-layer="880" to-port="0"/>
		<edge from-layer="878" from-port="0" to-layer="879" to-port="1"/>
		<edge from-layer="879" from-port="2" to-layer="886" to-port="0"/>
		<edge from-layer="880" from-port="1" to-layer="883" to-port="0"/>
		<edge from-layer="881" from-port="0" to-layer="883" to-port="1"/>
		<edge from-layer="882" from-port="0" to-layer="883" to-port="2"/>
		<edge from-layer="883" from-port="3" to-layer="885" to-port="0"/>
		<edge from-layer="884" from-port="0" to-layer="885" to-port="1"/>
		<edge from-layer="885" from-port="2" to-layer="886" to-port="1"/>
		<edge from-layer="886" from-port="2" to-layer="1027" to-port="3"/>
		<edge from-layer="887" from-port="0" to-layer="888" to-port="0"/>
		<edge from-layer="888" from-port="1" to-layer="889" to-port="1"/>
		<edge from-layer="889" from-port="2" to-layer="892" to-port="0"/>
		<edge from-layer="890" from-port="0" to-layer="891" to-port="0"/>
		<edge from-layer="891" from-port="1" to-layer="892" to-port="1"/>
		<edge from-layer="892" from-port="2" to-layer="895" to-port="0"/>
		<edge from-layer="893" from-port="0" to-layer="894" to-port="0"/>
		<edge from-layer="894" from-port="1" to-layer="895" to-port="1"/>
		<edge from-layer="895" from-port="2" to-layer="898" to-port="0"/>
		<edge from-layer="896" from-port="0" to-layer="897" to-port="0"/>
		<edge from-layer="897" from-port="1" to-layer="898" to-port="1"/>
		<edge from-layer="898" from-port="2" to-layer="899" to-port="0"/>
		<edge from-layer="899" from-port="1" to-layer="902" to-port="0"/>
		<edge from-layer="900" from-port="0" to-layer="901" to-port="0"/>
		<edge from-layer="901" from-port="1" to-layer="902" to-port="1"/>
		<edge from-layer="902" from-port="2" to-layer="905" to-port="0"/>
		<edge from-layer="903" from-port="0" to-layer="904" to-port="0"/>
		<edge from-layer="904" from-port="1" to-layer="905" to-port="1"/>
		<edge from-layer="905" from-port="2" to-layer="908" to-port="0"/>
		<edge from-layer="906" from-port="0" to-layer="907" to-port="0"/>
		<edge from-layer="907" from-port="1" to-layer="908" to-port="1"/>
		<edge from-layer="908" from-port="2" to-layer="911" to-port="0"/>
		<edge from-layer="909" from-port="0" to-layer="910" to-port="0"/>
		<edge from-layer="910" from-port="1" to-layer="911" to-port="1"/>
		<edge from-layer="911" from-port="2" to-layer="912" to-port="0"/>
		<edge from-layer="912" from-port="1" to-layer="915" to-port="0"/>
		<edge from-layer="913" from-port="0" to-layer="914" to-port="0"/>
		<edge from-layer="914" from-port="1" to-layer="915" to-port="1"/>
		<edge from-layer="915" from-port="2" to-layer="918" to-port="0"/>
		<edge from-layer="916" from-port="0" to-layer="917" to-port="0"/>
		<edge from-layer="917" from-port="1" to-layer="918" to-port="1"/>
		<edge from-layer="918" from-port="2" to-layer="921" to-port="0"/>
		<edge from-layer="919" from-port="0" to-layer="920" to-port="0"/>
		<edge from-layer="920" from-port="1" to-layer="921" to-port="1"/>
		<edge from-layer="921" from-port="2" to-layer="924" to-port="0"/>
		<edge from-layer="922" from-port="0" to-layer="923" to-port="0"/>
		<edge from-layer="923" from-port="1" to-layer="924" to-port="1"/>
		<edge from-layer="924" from-port="2" to-layer="925" to-port="0"/>
		<edge from-layer="925" from-port="1" to-layer="959" to-port="0"/>
		<edge from-layer="925" from-port="1" to-layer="1280" to-port="0"/>
		<edge from-layer="925" from-port="1" to-layer="928" to-port="0"/>
		<edge from-layer="925" from-port="1" to-layer="1154" to-port="0"/>
		<edge from-layer="926" from-port="0" to-layer="927" to-port="0"/>
		<edge from-layer="927" from-port="1" to-layer="928" to-port="1"/>
		<edge from-layer="928" from-port="2" to-layer="931" to-port="0"/>
		<edge from-layer="929" from-port="0" to-layer="930" to-port="0"/>
		<edge from-layer="930" from-port="1" to-layer="931" to-port="1"/>
		<edge from-layer="931" from-port="2" to-layer="934" to-port="0"/>
		<edge from-layer="932" from-port="0" to-layer="933" to-port="0"/>
		<edge from-layer="933" from-port="1" to-layer="934" to-port="1"/>
		<edge from-layer="934" from-port="2" to-layer="937" to-port="0"/>
		<edge from-layer="935" from-port="0" to-layer="936" to-port="0"/>
		<edge from-layer="936" from-port="1" to-layer="937" to-port="1"/>
		<edge from-layer="937" from-port="2" to-layer="940" to-port="0"/>
		<edge from-layer="938" from-port="0" to-layer="939" to-port="0"/>
		<edge from-layer="939" from-port="1" to-layer="940" to-port="1"/>
		<edge from-layer="940" from-port="2" to-layer="941" to-port="0"/>
		<edge from-layer="941" from-port="1" to-layer="944" to-port="0"/>
		<edge from-layer="942" from-port="0" to-layer="943" to-port="0"/>
		<edge from-layer="943" from-port="1" to-layer="944" to-port="1"/>
		<edge from-layer="944" from-port="2" to-layer="947" to-port="0"/>
		<edge from-layer="945" from-port="0" to-layer="946" to-port="0"/>
		<edge from-layer="946" from-port="1" to-layer="947" to-port="1"/>
		<edge from-layer="947" from-port="2" to-layer="950" to-port="0"/>
		<edge from-layer="947" from-port="2" to-layer="949" to-port="0"/>
		<edge from-layer="948" from-port="0" to-layer="949" to-port="1"/>
		<edge from-layer="949" from-port="2" to-layer="956" to-port="0"/>
		<edge from-layer="950" from-port="1" to-layer="953" to-port="0"/>
		<edge from-layer="951" from-port="0" to-layer="953" to-port="1"/>
		<edge from-layer="952" from-port="0" to-layer="953" to-port="2"/>
		<edge from-layer="953" from-port="3" to-layer="955" to-port="0"/>
		<edge from-layer="954" from-port="0" to-layer="955" to-port="1"/>
		<edge from-layer="955" from-port="2" to-layer="956" to-port="1"/>
		<edge from-layer="956" from-port="2" to-layer="1027" to-port="4"/>
		<edge from-layer="957" from-port="0" to-layer="958" to-port="0"/>
		<edge from-layer="958" from-port="1" to-layer="959" to-port="1"/>
		<edge from-layer="959" from-port="2" to-layer="962" to-port="0"/>
		<edge from-layer="960" from-port="0" to-layer="961" to-port="0"/>
		<edge from-layer="961" from-port="1" to-layer="962" to-port="1"/>
		<edge from-layer="962" from-port="2" to-layer="965" to-port="0"/>
		<edge from-layer="963" from-port="0" to-layer="964" to-port="0"/>
		<edge from-layer="964" from-port="1" to-layer="965" to-port="1"/>
		<edge from-layer="965" from-port="2" to-layer="968" to-port="0"/>
		<edge from-layer="966" from-port="0" to-layer="967" to-port="0"/>
		<edge from-layer="967" from-port="1" to-layer="968" to-port="1"/>
		<edge from-layer="968" from-port="2" to-layer="969" to-port="0"/>
		<edge from-layer="969" from-port="1" to-layer="972" to-port="0"/>
		<edge from-layer="970" from-port="0" to-layer="971" to-port="0"/>
		<edge from-layer="971" from-port="1" to-layer="972" to-port="1"/>
		<edge from-layer="972" from-port="2" to-layer="975" to-port="0"/>
		<edge from-layer="973" from-port="0" to-layer="974" to-port="0"/>
		<edge from-layer="974" from-port="1" to-layer="975" to-port="1"/>
		<edge from-layer="975" from-port="2" to-layer="978" to-port="0"/>
		<edge from-layer="976" from-port="0" to-layer="977" to-port="0"/>
		<edge from-layer="977" from-port="1" to-layer="978" to-port="1"/>
		<edge from-layer="978" from-port="2" to-layer="981" to-port="0"/>
		<edge from-layer="979" from-port="0" to-layer="980" to-port="0"/>
		<edge from-layer="980" from-port="1" to-layer="981" to-port="1"/>
		<edge from-layer="981" from-port="2" to-layer="982" to-port="0"/>
		<edge from-layer="982" from-port="1" to-layer="985" to-port="0"/>
		<edge from-layer="983" from-port="0" to-layer="984" to-port="0"/>
		<edge from-layer="984" from-port="1" to-layer="985" to-port="1"/>
		<edge from-layer="985" from-port="2" to-layer="988" to-port="0"/>
		<edge from-layer="986" from-port="0" to-layer="987" to-port="0"/>
		<edge from-layer="987" from-port="1" to-layer="988" to-port="1"/>
		<edge from-layer="988" from-port="2" to-layer="991" to-port="0"/>
		<edge from-layer="989" from-port="0" to-layer="990" to-port="0"/>
		<edge from-layer="990" from-port="1" to-layer="991" to-port="1"/>
		<edge from-layer="991" from-port="2" to-layer="994" to-port="0"/>
		<edge from-layer="992" from-port="0" to-layer="993" to-port="0"/>
		<edge from-layer="993" from-port="1" to-layer="994" to-port="1"/>
		<edge from-layer="994" from-port="2" to-layer="995" to-port="0"/>
		<edge from-layer="995" from-port="1" to-layer="1292" to-port="0"/>
		<edge from-layer="995" from-port="1" to-layer="1185" to-port="0"/>
		<edge from-layer="995" from-port="1" to-layer="998" to-port="0"/>
		<edge from-layer="996" from-port="0" to-layer="997" to-port="0"/>
		<edge from-layer="997" from-port="1" to-layer="998" to-port="1"/>
		<edge from-layer="998" from-port="2" to-layer="1001" to-port="0"/>
		<edge from-layer="999" from-port="0" to-layer="1000" to-port="0"/>
		<edge from-layer="1000" from-port="1" to-layer="1001" to-port="1"/>
		<edge from-layer="1001" from-port="2" to-layer="1004" to-port="0"/>
		<edge from-layer="1002" from-port="0" to-layer="1003" to-port="0"/>
		<edge from-layer="1003" from-port="1" to-layer="1004" to-port="1"/>
		<edge from-layer="1004" from-port="2" to-layer="1007" to-port="0"/>
		<edge from-layer="1005" from-port="0" to-layer="1006" to-port="0"/>
		<edge from-layer="1006" from-port="1" to-layer="1007" to-port="1"/>
		<edge from-layer="1007" from-port="2" to-layer="1010" to-port="0"/>
		<edge from-layer="1008" from-port="0" to-layer="1009" to-port="0"/>
		<edge from-layer="1009" from-port="1" to-layer="1010" to-port="1"/>
		<edge from-layer="1010" from-port="2" to-layer="1011" to-port="0"/>
		<edge from-layer="1011" from-port="1" to-layer="1014" to-port="0"/>
		<edge from-layer="1012" from-port="0" to-layer="1013" to-port="0"/>
		<edge from-layer="1013" from-port="1" to-layer="1014" to-port="1"/>
		<edge from-layer="1014" from-port="2" to-layer="1017" to-port="0"/>
		<edge from-layer="1015" from-port="0" to-layer="1016" to-port="0"/>
		<edge from-layer="1016" from-port="1" to-layer="1017" to-port="1"/>
		<edge from-layer="1017" from-port="2" to-layer="1019" to-port="0"/>
		<edge from-layer="1017" from-port="2" to-layer="1020" to-port="0"/>
		<edge from-layer="1018" from-port="0" to-layer="1019" to-port="1"/>
		<edge from-layer="1019" from-port="2" to-layer="1026" to-port="0"/>
		<edge from-layer="1020" from-port="1" to-layer="1023" to-port="0"/>
		<edge from-layer="1021" from-port="0" to-layer="1023" to-port="1"/>
		<edge from-layer="1022" from-port="0" to-layer="1023" to-port="2"/>
		<edge from-layer="1023" from-port="3" to-layer="1025" to-port="0"/>
		<edge from-layer="1024" from-port="0" to-layer="1025" to-port="1"/>
		<edge from-layer="1025" from-port="2" to-layer="1026" to-port="1"/>
		<edge from-layer="1026" from-port="2" to-layer="1027" to-port="5"/>
		<edge from-layer="1027" from-port="6" to-layer="1305" to-port="0"/>
		<edge from-layer="1028" from-port="0" to-layer="1029" to-port="0"/>
		<edge from-layer="1029" from-port="1" to-layer="1030" to-port="1"/>
		<edge from-layer="1030" from-port="2" to-layer="1033" to-port="0"/>
		<edge from-layer="1031" from-port="0" to-layer="1032" to-port="0"/>
		<edge from-layer="1032" from-port="1" to-layer="1033" to-port="1"/>
		<edge from-layer="1033" from-port="2" to-layer="1036" to-port="0"/>
		<edge from-layer="1034" from-port="0" to-layer="1035" to-port="0"/>
		<edge from-layer="1035" from-port="1" to-layer="1036" to-port="1"/>
		<edge from-layer="1036" from-port="2" to-layer="1039" to-port="0"/>
		<edge from-layer="1037" from-port="0" to-layer="1038" to-port="0"/>
		<edge from-layer="1038" from-port="1" to-layer="1039" to-port="1"/>
		<edge from-layer="1039" from-port="2" to-layer="1042" to-port="0"/>
		<edge from-layer="1040" from-port="0" to-layer="1041" to-port="0"/>
		<edge from-layer="1041" from-port="1" to-layer="1042" to-port="1"/>
		<edge from-layer="1042" from-port="2" to-layer="1043" to-port="0"/>
		<edge from-layer="1043" from-port="1" to-layer="1046" to-port="0"/>
		<edge from-layer="1044" from-port="0" to-layer="1045" to-port="0"/>
		<edge from-layer="1045" from-port="1" to-layer="1046" to-port="1"/>
		<edge from-layer="1046" from-port="2" to-layer="1049" to-port="0"/>
		<edge from-layer="1047" from-port="0" to-layer="1048" to-port="0"/>
		<edge from-layer="1048" from-port="1" to-layer="1049" to-port="1"/>
		<edge from-layer="1049" from-port="2" to-layer="1052" to-port="0"/>
		<edge from-layer="1049" from-port="2" to-layer="1051" to-port="0"/>
		<edge from-layer="1050" from-port="0" to-layer="1051" to-port="1"/>
		<edge from-layer="1051" from-port="2" to-layer="1058" to-port="0"/>
		<edge from-layer="1052" from-port="1" to-layer="1055" to-port="0"/>
		<edge from-layer="1053" from-port="0" to-layer="1055" to-port="1"/>
		<edge from-layer="1054" from-port="0" to-layer="1055" to-port="2"/>
		<edge from-layer="1055" from-port="3" to-layer="1057" to-port="0"/>
		<edge from-layer="1056" from-port="0" to-layer="1057" to-port="1"/>
		<edge from-layer="1057" from-port="2" to-layer="1058" to-port="1"/>
		<edge from-layer="1058" from-port="2" to-layer="1214" to-port="0"/>
		<edge from-layer="1059" from-port="0" to-layer="1060" to-port="0"/>
		<edge from-layer="1060" from-port="1" to-layer="1061" to-port="1"/>
		<edge from-layer="1061" from-port="2" to-layer="1064" to-port="0"/>
		<edge from-layer="1062" from-port="0" to-layer="1063" to-port="0"/>
		<edge from-layer="1063" from-port="1" to-layer="1064" to-port="1"/>
		<edge from-layer="1064" from-port="2" to-layer="1067" to-port="0"/>
		<edge from-layer="1065" from-port="0" to-layer="1066" to-port="0"/>
		<edge from-layer="1066" from-port="1" to-layer="1067" to-port="1"/>
		<edge from-layer="1067" from-port="2" to-layer="1070" to-port="0"/>
		<edge from-layer="1068" from-port="0" to-layer="1069" to-port="0"/>
		<edge from-layer="1069" from-port="1" to-layer="1070" to-port="1"/>
		<edge from-layer="1070" from-port="2" to-layer="1073" to-port="0"/>
		<edge from-layer="1071" from-port="0" to-layer="1072" to-port="0"/>
		<edge from-layer="1072" from-port="1" to-layer="1073" to-port="1"/>
		<edge from-layer="1073" from-port="2" to-layer="1074" to-port="0"/>
		<edge from-layer="1074" from-port="1" to-layer="1077" to-port="0"/>
		<edge from-layer="1075" from-port="0" to-layer="1076" to-port="0"/>
		<edge from-layer="1076" from-port="1" to-layer="1077" to-port="1"/>
		<edge from-layer="1077" from-port="2" to-layer="1080" to-port="0"/>
		<edge from-layer="1078" from-port="0" to-layer="1079" to-port="0"/>
		<edge from-layer="1079" from-port="1" to-layer="1080" to-port="1"/>
		<edge from-layer="1080" from-port="2" to-layer="1083" to-port="0"/>
		<edge from-layer="1080" from-port="2" to-layer="1082" to-port="0"/>
		<edge from-layer="1081" from-port="0" to-layer="1082" to-port="1"/>
		<edge from-layer="1082" from-port="2" to-layer="1089" to-port="0"/>
		<edge from-layer="1083" from-port="1" to-layer="1086" to-port="0"/>
		<edge from-layer="1084" from-port="0" to-layer="1086" to-port="1"/>
		<edge from-layer="1085" from-port="0" to-layer="1086" to-port="2"/>
		<edge from-layer="1086" from-port="3" to-layer="1088" to-port="0"/>
		<edge from-layer="1087" from-port="0" to-layer="1088" to-port="1"/>
		<edge from-layer="1088" from-port="2" to-layer="1089" to-port="1"/>
		<edge from-layer="1089" from-port="2" to-layer="1214" to-port="1"/>
		<edge from-layer="1090" from-port="0" to-layer="1091" to-port="0"/>
		<edge from-layer="1091" from-port="1" to-layer="1092" to-port="1"/>
		<edge from-layer="1092" from-port="2" to-layer="1095" to-port="0"/>
		<edge from-layer="1093" from-port="0" to-layer="1094" to-port="0"/>
		<edge from-layer="1094" from-port="1" to-layer="1095" to-port="1"/>
		<edge from-layer="1095" from-port="2" to-layer="1098" to-port="0"/>
		<edge from-layer="1096" from-port="0" to-layer="1097" to-port="0"/>
		<edge from-layer="1097" from-port="1" to-layer="1098" to-port="1"/>
		<edge from-layer="1098" from-port="2" to-layer="1101" to-port="0"/>
		<edge from-layer="1099" from-port="0" to-layer="1100" to-port="0"/>
		<edge from-layer="1100" from-port="1" to-layer="1101" to-port="1"/>
		<edge from-layer="1101" from-port="2" to-layer="1104" to-port="0"/>
		<edge from-layer="1102" from-port="0" to-layer="1103" to-port="0"/>
		<edge from-layer="1103" from-port="1" to-layer="1104" to-port="1"/>
		<edge from-layer="1104" from-port="2" to-layer="1105" to-port="0"/>
		<edge from-layer="1105" from-port="1" to-layer="1108" to-port="0"/>
		<edge from-layer="1106" from-port="0" to-layer="1107" to-port="0"/>
		<edge from-layer="1107" from-port="1" to-layer="1108" to-port="1"/>
		<edge from-layer="1108" from-port="2" to-layer="1111" to-port="0"/>
		<edge from-layer="1109" from-port="0" to-layer="1110" to-port="0"/>
		<edge from-layer="1110" from-port="1" to-layer="1111" to-port="1"/>
		<edge from-layer="1111" from-port="2" to-layer="1114" to-port="0"/>
		<edge from-layer="1111" from-port="2" to-layer="1113" to-port="0"/>
		<edge from-layer="1112" from-port="0" to-layer="1113" to-port="1"/>
		<edge from-layer="1113" from-port="2" to-layer="1120" to-port="0"/>
		<edge from-layer="1114" from-port="1" to-layer="1117" to-port="0"/>
		<edge from-layer="1115" from-port="0" to-layer="1117" to-port="1"/>
		<edge from-layer="1116" from-port="0" to-layer="1117" to-port="2"/>
		<edge from-layer="1117" from-port="3" to-layer="1119" to-port="0"/>
		<edge from-layer="1118" from-port="0" to-layer="1119" to-port="1"/>
		<edge from-layer="1119" from-port="2" to-layer="1120" to-port="1"/>
		<edge from-layer="1120" from-port="2" to-layer="1214" to-port="2"/>
		<edge from-layer="1121" from-port="0" to-layer="1122" to-port="0"/>
		<edge from-layer="1122" from-port="1" to-layer="1123" to-port="1"/>
		<edge from-layer="1123" from-port="2" to-layer="1126" to-port="0"/>
		<edge from-layer="1124" from-port="0" to-layer="1125" to-port="0"/>
		<edge from-layer="1125" from-port="1" to-layer="1126" to-port="1"/>
		<edge from-layer="1126" from-port="2" to-layer="1129" to-port="0"/>
		<edge from-layer="1127" from-port="0" to-layer="1128" to-port="0"/>
		<edge from-layer="1128" from-port="1" to-layer="1129" to-port="1"/>
		<edge from-layer="1129" from-port="2" to-layer="1132" to-port="0"/>
		<edge from-layer="1130" from-port="0" to-layer="1131" to-port="0"/>
		<edge from-layer="1131" from-port="1" to-layer="1132" to-port="1"/>
		<edge from-layer="1132" from-port="2" to-layer="1135" to-port="0"/>
		<edge from-layer="1133" from-port="0" to-layer="1134" to-port="0"/>
		<edge from-layer="1134" from-port="1" to-layer="1135" to-port="1"/>
		<edge from-layer="1135" from-port="2" to-layer="1136" to-port="0"/>
		<edge from-layer="1136" from-port="1" to-layer="1139" to-port="0"/>
		<edge from-layer="1137" from-port="0" to-layer="1138" to-port="0"/>
		<edge from-layer="1138" from-port="1" to-layer="1139" to-port="1"/>
		<edge from-layer="1139" from-port="2" to-layer="1142" to-port="0"/>
		<edge from-layer="1140" from-port="0" to-layer="1141" to-port="0"/>
		<edge from-layer="1141" from-port="1" to-layer="1142" to-port="1"/>
		<edge from-layer="1142" from-port="2" to-layer="1145" to-port="0"/>
		<edge from-layer="1142" from-port="2" to-layer="1144" to-port="0"/>
		<edge from-layer="1143" from-port="0" to-layer="1144" to-port="1"/>
		<edge from-layer="1144" from-port="2" to-layer="1151" to-port="0"/>
		<edge from-layer="1145" from-port="1" to-layer="1148" to-port="0"/>
		<edge from-layer="1146" from-port="0" to-layer="1148" to-port="1"/>
		<edge from-layer="1147" from-port="0" to-layer="1148" to-port="2"/>
		<edge from-layer="1148" from-port="3" to-layer="1150" to-port="0"/>
		<edge from-layer="1149" from-port="0" to-layer="1150" to-port="1"/>
		<edge from-layer="1150" from-port="2" to-layer="1151" to-port="1"/>
		<edge from-layer="1151" from-port="2" to-layer="1214" to-port="3"/>
		<edge from-layer="1152" from-port="0" to-layer="1153" to-port="0"/>
		<edge from-layer="1153" from-port="1" to-layer="1154" to-port="1"/>
		<edge from-layer="1154" from-port="2" to-layer="1157" to-port="0"/>
		<edge from-layer="1155" from-port="0" to-layer="1156" to-port="0"/>
		<edge from-layer="1156" from-port="1" to-layer="1157" to-port="1"/>
		<edge from-layer="1157" from-port="2" to-layer="1160" to-port="0"/>
		<edge from-layer="1158" from-port="0" to-layer="1159" to-port="0"/>
		<edge from-layer="1159" from-port="1" to-layer="1160" to-port="1"/>
		<edge from-layer="1160" from-port="2" to-layer="1163" to-port="0"/>
		<edge from-layer="1161" from-port="0" to-layer="1162" to-port="0"/>
		<edge from-layer="1162" from-port="1" to-layer="1163" to-port="1"/>
		<edge from-layer="1163" from-port="2" to-layer="1166" to-port="0"/>
		<edge from-layer="1164" from-port="0" to-layer="1165" to-port="0"/>
		<edge from-layer="1165" from-port="1" to-layer="1166" to-port="1"/>
		<edge from-layer="1166" from-port="2" to-layer="1167" to-port="0"/>
		<edge from-layer="1167" from-port="1" to-layer="1170" to-port="0"/>
		<edge from-layer="1168" from-port="0" to-layer="1169" to-port="0"/>
		<edge from-layer="1169" from-port="1" to-layer="1170" to-port="1"/>
		<edge from-layer="1170" from-port="2" to-layer="1173" to-port="0"/>
		<edge from-layer="1171" from-port="0" to-layer="1172" to-port="0"/>
		<edge from-layer="1172" from-port="1" to-layer="1173" to-port="1"/>
		<edge from-layer="1173" from-port="2" to-layer="1175" to-port="0"/>
		<edge from-layer="1173" from-port="2" to-layer="1176" to-port="0"/>
		<edge from-layer="1174" from-port="0" to-layer="1175" to-port="1"/>
		<edge from-layer="1175" from-port="2" to-layer="1182" to-port="0"/>
		<edge from-layer="1176" from-port="1" to-layer="1179" to-port="0"/>
		<edge from-layer="1177" from-port="0" to-layer="1179" to-port="1"/>
		<edge from-layer="1178" from-port="0" to-layer="1179" to-port="2"/>
		<edge from-layer="1179" from-port="3" to-layer="1181" to-port="0"/>
		<edge from-layer="1180" from-port="0" to-layer="1181" to-port="1"/>
		<edge from-layer="1181" from-port="2" to-layer="1182" to-port="1"/>
		<edge from-layer="1182" from-port="2" to-layer="1214" to-port="4"/>
		<edge from-layer="1183" from-port="0" to-layer="1184" to-port="0"/>
		<edge from-layer="1184" from-port="1" to-layer="1185" to-port="1"/>
		<edge from-layer="1185" from-port="2" to-layer="1188" to-port="0"/>
		<edge from-layer="1186" from-port="0" to-layer="1187" to-port="0"/>
		<edge from-layer="1187" from-port="1" to-layer="1188" to-port="1"/>
		<edge from-layer="1188" from-port="2" to-layer="1191" to-port="0"/>
		<edge from-layer="1189" from-port="0" to-layer="1190" to-port="0"/>
		<edge from-layer="1190" from-port="1" to-layer="1191" to-port="1"/>
		<edge from-layer="1191" from-port="2" to-layer="1194" to-port="0"/>
		<edge from-layer="1192" from-port="0" to-layer="1193" to-port="0"/>
		<edge from-layer="1193" from-port="1" to-layer="1194" to-port="1"/>
		<edge from-layer="1194" from-port="2" to-layer="1197" to-port="0"/>
		<edge from-layer="1195" from-port="0" to-layer="1196" to-port="0"/>
		<edge from-layer="1196" from-port="1" to-layer="1197" to-port="1"/>
		<edge from-layer="1197" from-port="2" to-layer="1198" to-port="0"/>
		<edge from-layer="1198" from-port="1" to-layer="1201" to-port="0"/>
		<edge from-layer="1199" from-port="0" to-layer="1200" to-port="0"/>
		<edge from-layer="1200" from-port="1" to-layer="1201" to-port="1"/>
		<edge from-layer="1201" from-port="2" to-layer="1204" to-port="0"/>
		<edge from-layer="1202" from-port="0" to-layer="1203" to-port="0"/>
		<edge from-layer="1203" from-port="1" to-layer="1204" to-port="1"/>
		<edge from-layer="1204" from-port="2" to-layer="1207" to-port="0"/>
		<edge from-layer="1204" from-port="2" to-layer="1206" to-port="0"/>
		<edge from-layer="1205" from-port="0" to-layer="1206" to-port="1"/>
		<edge from-layer="1206" from-port="2" to-layer="1213" to-port="0"/>
		<edge from-layer="1207" from-port="1" to-layer="1210" to-port="0"/>
		<edge from-layer="1208" from-port="0" to-layer="1210" to-port="1"/>
		<edge from-layer="1209" from-port="0" to-layer="1210" to-port="2"/>
		<edge from-layer="1210" from-port="3" to-layer="1212" to-port="0"/>
		<edge from-layer="1211" from-port="0" to-layer="1212" to-port="1"/>
		<edge from-layer="1212" from-port="2" to-layer="1213" to-port="1"/>
		<edge from-layer="1213" from-port="2" to-layer="1214" to-port="5"/>
		<edge from-layer="1214" from-port="6" to-layer="1216" to-port="0"/>
		<edge from-layer="1215" from-port="0" to-layer="1216" to-port="1"/>
		<edge from-layer="1216" from-port="2" to-layer="1217" to-port="0"/>
		<edge from-layer="1216" from-port="2" to-layer="1226" to-port="0"/>
		<edge from-layer="1217" from-port="1" to-layer="1221" to-port="0"/>
		<edge from-layer="1217" from-port="1" to-layer="1228" to-port="1"/>
		<edge from-layer="1218" from-port="0" to-layer="1221" to-port="1"/>
		<edge from-layer="1219" from-port="0" to-layer="1221" to-port="2"/>
		<edge from-layer="1220" from-port="0" to-layer="1221" to-port="3"/>
		<edge from-layer="1221" from-port="4" to-layer="1223" to-port="0"/>
		<edge from-layer="1222" from-port="0" to-layer="1223" to-port="1"/>
		<edge from-layer="1223" from-port="2" to-layer="1225" to-port="0"/>
		<edge from-layer="1224" from-port="0" to-layer="1225" to-port="1"/>
		<edge from-layer="1225" from-port="2" to-layer="1226" to-port="1"/>
		<edge from-layer="1226" from-port="2" to-layer="1227" to-port="0"/>
		<edge from-layer="1227" from-port="1" to-layer="1228" to-port="0"/>
		<edge from-layer="1228" from-port="2" to-layer="1230" to-port="0"/>
		<edge from-layer="1229" from-port="0" to-layer="1230" to-port="1"/>
		<edge from-layer="1230" from-port="2" to-layer="1305" to-port="1"/>
		<edge from-layer="1231" from-port="1" to-layer="1235" to-port="0"/>
		<edge from-layer="1232" from-port="0" to-layer="1235" to-port="1"/>
		<edge from-layer="1233" from-port="0" to-layer="1235" to-port="2"/>
		<edge from-layer="1234" from-port="0" to-layer="1235" to-port="3"/>
		<edge from-layer="1235" from-port="4" to-layer="1241" to-port="0"/>
		<edge from-layer="1236" from-port="1" to-layer="1276" to-port="0"/>
		<edge from-layer="1236" from-port="1" to-layer="1288" to-port="0"/>
		<edge from-layer="1236" from-port="1" to-layer="1300" to-port="0"/>
		<edge from-layer="1236" from-port="1" to-layer="1252" to-port="0"/>
		<edge from-layer="1236" from-port="1" to-layer="1264" to-port="0"/>
		<edge from-layer="1236" from-port="1" to-layer="1240" to-port="0"/>
		<edge from-layer="1237" from-port="0" to-layer="1240" to-port="1"/>
		<edge from-layer="1238" from-port="0" to-layer="1240" to-port="2"/>
		<edge from-layer="1239" from-port="0" to-layer="1240" to-port="3"/>
		<edge from-layer="1240" from-port="4" to-layer="1241" to-port="1"/>
		<edge from-layer="1241" from-port="2" to-layer="1243" to-port="0"/>
		<edge from-layer="1242" from-port="0" to-layer="1243" to-port="1"/>
		<edge from-layer="1243" from-port="2" to-layer="1304" to-port="0"/>
		<edge from-layer="1244" from-port="1" to-layer="1248" to-port="0"/>
		<edge from-layer="1245" from-port="0" to-layer="1248" to-port="1"/>
		<edge from-layer="1246" from-port="0" to-layer="1248" to-port="2"/>
		<edge from-layer="1247" from-port="0" to-layer="1248" to-port="3"/>
		<edge from-layer="1248" from-port="4" to-layer="1253" to-port="0"/>
		<edge from-layer="1249" from-port="0" to-layer="1252" to-port="1"/>
		<edge from-layer="1250" from-port="0" to-layer="1252" to-port="2"/>
		<edge from-layer="1251" from-port="0" to-layer="1252" to-port="3"/>
		<edge from-layer="1252" from-port="4" to-layer="1253" to-port="1"/>
		<edge from-layer="1253" from-port="2" to-layer="1255" to-port="0"/>
		<edge from-layer="1254" from-port="0" to-layer="1255" to-port="1"/>
		<edge from-layer="1255" from-port="2" to-layer="1304" to-port="1"/>
		<edge from-layer="1256" from-port="1" to-layer="1260" to-port="0"/>
		<edge from-layer="1257" from-port="0" to-layer="1260" to-port="1"/>
		<edge from-layer="1258" from-port="0" to-layer="1260" to-port="2"/>
		<edge from-layer="1259" from-port="0" to-layer="1260" to-port="3"/>
		<edge from-layer="1260" from-port="4" to-layer="1265" to-port="0"/>
		<edge from-layer="1261" from-port="0" to-layer="1264" to-port="1"/>
		<edge from-layer="1262" from-port="0" to-layer="1264" to-port="2"/>
		<edge from-layer="1263" from-port="0" to-layer="1264" to-port="3"/>
		<edge from-layer="1264" from-port="4" to-layer="1265" to-port="1"/>
		<edge from-layer="1265" from-port="2" to-layer="1267" to-port="0"/>
		<edge from-layer="1266" from-port="0" to-layer="1267" to-port="1"/>
		<edge from-layer="1267" from-port="2" to-layer="1304" to-port="2"/>
		<edge from-layer="1268" from-port="1" to-layer="1272" to-port="0"/>
		<edge from-layer="1269" from-port="0" to-layer="1272" to-port="1"/>
		<edge from-layer="1270" from-port="0" to-layer="1272" to-port="2"/>
		<edge from-layer="1271" from-port="0" to-layer="1272" to-port="3"/>
		<edge from-layer="1272" from-port="4" to-layer="1277" to-port="0"/>
		<edge from-layer="1273" from-port="0" to-layer="1276" to-port="1"/>
		<edge from-layer="1274" from-port="0" to-layer="1276" to-port="2"/>
		<edge from-layer="1275" from-port="0" to-layer="1276" to-port="3"/>
		<edge from-layer="1276" from-port="4" to-layer="1277" to-port="1"/>
		<edge from-layer="1277" from-port="2" to-layer="1279" to-port="0"/>
		<edge from-layer="1278" from-port="0" to-layer="1279" to-port="1"/>
		<edge from-layer="1279" from-port="2" to-layer="1304" to-port="3"/>
		<edge from-layer="1280" from-port="1" to-layer="1284" to-port="0"/>
		<edge from-layer="1281" from-port="0" to-layer="1284" to-port="1"/>
		<edge from-layer="1282" from-port="0" to-layer="1284" to-port="2"/>
		<edge from-layer="1283" from-port="0" to-layer="1284" to-port="3"/>
		<edge from-layer="1284" from-port="4" to-layer="1289" to-port="0"/>
		<edge from-layer="1285" from-port="0" to-layer="1288" to-port="1"/>
		<edge from-layer="1286" from-port="0" to-layer="1288" to-port="2"/>
		<edge from-layer="1287" from-port="0" to-layer="1288" to-port="3"/>
		<edge from-layer="1288" from-port="4" to-layer="1289" to-port="1"/>
		<edge from-layer="1289" from-port="2" to-layer="1291" to-port="0"/>
		<edge from-layer="1290" from-port="0" to-layer="1291" to-port="1"/>
		<edge from-layer="1291" from-port="2" to-layer="1304" to-port="4"/>
		<edge from-layer="1292" from-port="1" to-layer="1296" to-port="0"/>
		<edge from-layer="1293" from-port="0" to-layer="1296" to-port="1"/>
		<edge from-layer="1294" from-port="0" to-layer="1296" to-port="2"/>
		<edge from-layer="1295" from-port="0" to-layer="1296" to-port="3"/>
		<edge from-layer="1296" from-port="4" to-layer="1301" to-port="0"/>
		<edge from-layer="1297" from-port="0" to-layer="1300" to-port="1"/>
		<edge from-layer="1298" from-port="0" to-layer="1300" to-port="2"/>
		<edge from-layer="1299" from-port="0" to-layer="1300" to-port="3"/>
		<edge from-layer="1300" from-port="4" to-layer="1301" to-port="1"/>
		<edge from-layer="1301" from-port="2" to-layer="1303" to-port="0"/>
		<edge from-layer="1302" from-port="0" to-layer="1303" to-port="1"/>
		<edge from-layer="1303" from-port="2" to-layer="1304" to-port="5"/>
		<edge from-layer="1304" from-port="6" to-layer="1305" to-port="2"/>
		<edge from-layer="1305" from-port="3" to-layer="1306" to-port="0"/>
	</edges>
	<meta_data>
		<MO_version value="2022.1.0-6456-86faa257241"/>
		<cli_parameters>
			<caffe_parser_path value="DIR"/>
			<compress_fp16 value="True"/>
			<data_type value="FP32"/>
			<disable_nhwc_to_nchw value="False"/>
			<disable_omitting_optional value="False"/>
			<disable_resnet_optimization value="False"/>
			<disable_weights_compression value="False"/>
			<enable_concat_optimization value="False"/>
			<enable_flattening_nested_params value="False"/>
			<enable_ssd_gluoncv value="False"/>
			<extensions value="DIR"/>
			<framework value="onnx"/>
			<freeze_placeholder_with_value value="{}"/>
			<generate_deprecated_IR_V7 value="False"/>
			<input value="input.1"/>
			<input_model value="DIR/model.onnx"/>
			<input_model_is_text value="False"/>
			<input_shape value="[1,3,512,512]"/>
			<k value="DIR/CustomLayersMapping.xml"/>
			<keep_shape_ops value="True"/>
			<layout value="input.1(nchw)"/>
			<layout_values value="{'input.1': {'source_layout': 'nchw', 'target_layout': None, 'is_input': True}}"/>
			<legacy_ir_generation value="False"/>
			<legacy_mxnet_model value="False"/>
			<log_level value="ERROR"/>
			<mean_scale_values value="{'input.1': {'mean': None, 'scale': array([255.])}}"/>
			<mean_values value="()"/>
			<model_name value="product-detection-0001"/>
			<output_dir value="DIR"/>
			<placeholder_data_types value="{}"/>
			<placeholder_shapes value="{'input.1': (1, 3, 512, 512)}"/>
			<progress value="False"/>
			<remove_memory value="False"/>
			<remove_output_softmax value="False"/>
			<reverse_input_channels value="True"/>
			<save_params_from_nd value="False"/>
			<scale_values value="input.1[255.0]"/>
			<silent value="False"/>
			<source_layout value="()"/>
			<static_shape value="False"/>
			<stream_output value="False"/>
			<target_layout value="()"/>
			<transform value=""/>
			<use_legacy_frontend value="False"/>
			<use_new_frontend value="False"/>
			<unset unset_cli_parameters="batch, counts, disable_fusing, disable_gfusing, finegrain_fusing, input_checkpoint, input_meta_graph, input_proto, input_symbol, mean_file, mean_file_offsets, move_to_preprocess, nd_prefix_name, output, pretrained_model_name, saved_model_dir, saved_model_tags, scale, tensorboard_logdir, tensorflow_custom_layer_libraries, tensorflow_custom_operations_config_update, tensorflow_object_detection_api_pipeline_config, tensorflow_use_custom_operations_config, transformations_config"/>
		</cli_parameters>
	</meta_data>
</net>
